…
    "early_stop": 20,
    "model_args": {
        "SE_file_path": "../data/METRLA/SE_metrla.txt",
        "timestep_in": 12,
        "statt_layers": 1,
        "att_heads": 8,
        "att_dims": 8,
        "bn_decay": 0.1,
        "device": "cuda:0"
    }
}
=========================================================================================================
Layer (type:depth-idx)                                  Output Shape              Param #
=========================================================================================================
GMAN                                                    [32, 12, 207, 1]          --
├─FC: 1-1                                               [32, 12, 207, 64]         --
│    └─ModuleList: 2-1                                  --                        --
│    │    └─conv2d_: 3-1                                [32, 12, 207, 64]         256
│    │    └─conv2d_: 3-2                                [32, 12, 207, 64]         4,288
├─STEmbedding: 1-2                                      [32, 24, 207, 64]         --
│    └─FC: 2-2                                          [1, 1, 207, 64]           --
│    │    └─ModuleList: 3-3                             --                        8,576
│    └─FC: 2-3                                          [32, 24, 1, 64]           --
│    │    └─ModuleList: 3-4                             --                        23,360
├─ModuleList: 1-3                                       --                        --
│    └─STAttBlock: 2-4                                  [32, 12, 207, 64]         --
│    │    └─spatialAttention: 3-5                       [32, 12, 207, 64]         29,440
│    │    └─temporalAttention: 3-6                      [32, 12, 207, 64]         29,440
│    │    └─gatedFusion: 3-7                            [32, 12, 207, 64]         17,088
├─transformAttention: 1-4                               [32, 12, 207, 64]         --
│    └─FC: 2-5                                          [32, 12, 207, 64]         --
│    │    └─ModuleList: 3-8                             --                        4,288
│    └─FC: 2-6                                          [32, 12, 207, 64]         --
│    │    └─ModuleList: 3-9                             --                        4,288
│    └─FC: 2-7                                          [32, 12, 207, 64]         --
│    │    └─ModuleList: 3-10                            --                        4,288
│    └─FC: 2-8                                          [32, 12, 207, 64]         --
│    │    └─ModuleList: 3-11                            --                        4,288
├─ModuleList: 1-5                                       --                        --
│    └─STAttBlock: 2-9                                  [32, 12, 207, 64]         --
│    │    └─spatialAttention: 3-12                      [32, 12, 207, 64]         29,440
│    │    └─temporalAttention: 3-13                     [32, 12, 207, 64]         29,440
│    │    └─gatedFusion: 3-14                           [32, 12, 207, 64]         17,088
├─FC: 1-6                                               [32, 12, 207, 1]          --
│    └─ModuleList: 2-10                                 --                        --
│    │    └─conv2d_: 3-15                               [32, 12, 207, 64]         4,288
│    │    └─conv2d_: 3-16                               [32, 12, 207, 1]          67
=========================================================================================================
Total params: 209,923
Trainable params: 209,923
Non-trainable params: 0
Total mult-adds (G): 13.85
=========================================================================================================
Input size (MB): 1.59
Forward/backward pass size (MB): 2526.54
Params size (MB): 0.84
Estimated Total Size (MB): 2528.97
…
