…
                64
            ],
            [
                128,
                128
            ],
            [
                12
            ]
        ],
        "T": 12,
        "act_func": "glu",
        "graph_conv_type": "cheb_graph_conv",
        "bias": true,
        "droprate": 0.5
    }
}
==========================================================================================
Layer (type:depth-idx)                   Output Shape              Param #
==========================================================================================
STGCN                                    [64, 12, 170, 1]          --
├─Sequential: 1-1                        [64, 64, 4, 170]          --
│    └─STConvBlock: 2-1                  [64, 64, 8, 170]          --
│    │    └─TemporalConvLayer: 3-1       [64, 64, 10, 170]         640
│    │    └─GraphConvLayer: 3-2          [64, 16, 10, 170]         1,824
│    │    └─ReLU: 3-3                    [64, 16, 10, 170]         --
│    │    └─TemporalConvLayer: 3-4       [64, 64, 8, 170]          7,360
│    │    └─LayerNorm: 3-5               [64, 8, 170, 64]          21,760
│    │    └─Dropout: 3-6                 [64, 64, 8, 170]          --
│    └─STConvBlock: 2-2                  [64, 64, 4, 170]          --
│    │    └─TemporalConvLayer: 3-7       [64, 64, 6, 170]          28,864
│    │    └─GraphConvLayer: 3-8          [64, 16, 6, 170]          1,824
│    │    └─ReLU: 3-9                    [64, 16, 6, 170]          --
│    │    └─TemporalConvLayer: 3-10      [64, 64, 4, 170]          7,360
│    │    └─LayerNorm: 3-11              [64, 4, 170, 64]          21,760
│    │    └─Dropout: 3-12                [64, 64, 4, 170]          --
├─OutputBlock: 1-2                       [64, 12, 1, 170]          --
│    └─TemporalConvLayer: 2-3            [64, 128, 1, 170]         --
│    │    └─Align: 3-13                  [64, 128, 4, 170]         8,320
│    │    └─CausalConv2d: 3-14           [64, 256, 1, 170]         65,792
│    │    └─Sigmoid: 3-15                [64, 128, 1, 170]         --
│    └─LayerNorm: 2-4                    [64, 1, 170, 128]         43,520
│    └─Linear: 2-5                       [64, 1, 170, 128]         16,512
│    └─ReLU: 2-6                         [64, 1, 170, 128]         --
│    └─Linear: 2-7                       [64, 1, 170, 12]          1,548
==========================================================================================
Total params: 227,084
Trainable params: 227,084
Non-trainable params: 0
Total mult-adds (G): 3.66
==========================================================================================
Input size (MB): 0.52
Forward/backward pass size (MB): 468.97
Params size (MB): 0.85
Estimated Total Size (MB): 470.34
==========================================================================================
…
