…
                64
            ],
            [
                128,
                128
            ],
            [
                12
            ]
        ],
        "T": 12,
        "act_func": "glu",
        "graph_conv_type": "cheb_graph_conv",
        "bias": true,
        "droprate": 0.5
    }
}
==========================================================================================
Layer (type:depth-idx)                   Output Shape              Param #
==========================================================================================
STGCN                                    [64, 12, 307, 1]          --
├─Sequential: 1-1                        [64, 64, 4, 307]          --
│    └─STConvBlock: 2-1                  [64, 64, 8, 307]          --
│    │    └─TemporalConvLayer: 3-1       [64, 64, 10, 307]         640
│    │    └─GraphConvLayer: 3-2          [64, 16, 10, 307]         1,824
│    │    └─ReLU: 3-3                    [64, 16, 10, 307]         --
│    │    └─TemporalConvLayer: 3-4       [64, 64, 8, 307]          7,360
│    │    └─LayerNorm: 3-5               [64, 8, 307, 64]          39,296
│    │    └─Dropout: 3-6                 [64, 64, 8, 307]          --
│    └─STConvBlock: 2-2                  [64, 64, 4, 307]          --
│    │    └─TemporalConvLayer: 3-7       [64, 64, 6, 307]          28,864
│    │    └─GraphConvLayer: 3-8          [64, 16, 6, 307]          1,824
│    │    └─ReLU: 3-9                    [64, 16, 6, 307]          --
│    │    └─TemporalConvLayer: 3-10      [64, 64, 4, 307]          7,360
│    │    └─LayerNorm: 3-11              [64, 4, 307, 64]          39,296
│    │    └─Dropout: 3-12                [64, 64, 4, 307]          --
├─OutputBlock: 1-2                       [64, 12, 1, 307]          --
│    └─TemporalConvLayer: 2-3            [64, 128, 1, 307]         --
│    │    └─Align: 3-13                  [64, 128, 4, 307]         8,320
│    │    └─CausalConv2d: 3-14           [64, 256, 1, 307]         65,792
│    │    └─Sigmoid: 3-15                [64, 128, 1, 307]         --
│    └─LayerNorm: 2-4                    [64, 1, 307, 128]         78,592
│    └─Linear: 2-5                       [64, 1, 307, 128]         16,512
│    └─ReLU: 2-6                         [64, 1, 307, 128]         --
│    └─Linear: 2-7                       [64, 1, 307, 12]          1,548
==========================================================================================
Total params: 297,228
Trainable params: 297,228
Non-trainable params: 0
Total mult-adds (G): 6.62
==========================================================================================
Input size (MB): 0.94
Forward/backward pass size (MB): 846.91
Params size (MB): 1.13
Estimated Total Size (MB): 848.98
==========================================================================================
…
