…
                64
            ],
            [
                128,
                128
            ],
            [
                12
            ]
        ],
        "T": 12,
        "act_func": "glu",
        "graph_conv_type": "cheb_graph_conv",
        "bias": true,
        "droprate": 0.5
    }
}
==========================================================================================
Layer (type:depth-idx)                   Output Shape              Param #
==========================================================================================
STGCN                                    [64, 12, 883, 1]          --
├─Sequential: 1-1                        [64, 64, 4, 883]          --
│    └─STConvBlock: 2-1                  [64, 64, 8, 883]          --
│    │    └─TemporalConvLayer: 3-1       [64, 64, 10, 883]         640
│    │    └─GraphConvLayer: 3-2          [64, 16, 10, 883]         1,824
│    │    └─ReLU: 3-3                    [64, 16, 10, 883]         --
│    │    └─TemporalConvLayer: 3-4       [64, 64, 8, 883]          7,360
│    │    └─LayerNorm: 3-5               [64, 8, 883, 64]          113,024
│    │    └─Dropout: 3-6                 [64, 64, 8, 883]          --
│    └─STConvBlock: 2-2                  [64, 64, 4, 883]          --
│    │    └─TemporalConvLayer: 3-7       [64, 64, 6, 883]          28,864
│    │    └─GraphConvLayer: 3-8          [64, 16, 6, 883]          1,824
│    │    └─ReLU: 3-9                    [64, 16, 6, 883]          --
│    │    └─TemporalConvLayer: 3-10      [64, 64, 4, 883]          7,360
│    │    └─LayerNorm: 3-11              [64, 4, 883, 64]          113,024
│    │    └─Dropout: 3-12                [64, 64, 4, 883]          --
├─OutputBlock: 1-2                       [64, 12, 1, 883]          --
│    └─TemporalConvLayer: 2-3            [64, 128, 1, 883]         --
│    │    └─Align: 3-13                  [64, 128, 4, 883]         8,320
│    │    └─CausalConv2d: 3-14           [64, 256, 1, 883]         65,792
│    │    └─Sigmoid: 3-15                [64, 128, 1, 883]         --
│    └─LayerNorm: 2-4                    [64, 1, 883, 128]         226,048
│    └─Linear: 2-5                       [64, 1, 883, 128]         16,512
│    └─ReLU: 2-6                         [64, 1, 883, 128]         --
│    └─Linear: 2-7                       [64, 1, 883, 12]          1,548
==========================================================================================
Total params: 592,140
Trainable params: 592,140
Non-trainable params: 0
Total mult-adds (G): 19.03
==========================================================================================
Input size (MB): 2.71
Forward/backward pass size (MB): 2435.89
Params size (MB): 2.31
Estimated Total Size (MB): 2440.92
…
