…
                64
            ],
            [
                128,
                128
            ],
            [
                12
            ]
        ],
        "T": 12,
        "act_func": "glu",
        "graph_conv_type": "cheb_graph_conv",
        "bias": true,
        "droprate": 0.5
    }
}
==========================================================================================
Layer (type:depth-idx)                   Output Shape              Param #
==========================================================================================
STGCN                                    [64, 12, 1026, 1]         --
├─Sequential: 1-1                        [64, 64, 4, 1026]         --
│    └─STConvBlock: 2-1                  [64, 64, 8, 1026]         --
│    │    └─TemporalConvLayer: 3-1       [64, 64, 10, 1026]        640
│    │    └─GraphConvLayer: 3-2          [64, 16, 10, 1026]        1,824
│    │    └─ReLU: 3-3                    [64, 16, 10, 1026]        --
│    │    └─TemporalConvLayer: 3-4       [64, 64, 8, 1026]         7,360
│    │    └─LayerNorm: 3-5               [64, 8, 1026, 64]         131,328
│    │    └─Dropout: 3-6                 [64, 64, 8, 1026]         --
│    └─STConvBlock: 2-2                  [64, 64, 4, 1026]         --
│    │    └─TemporalConvLayer: 3-7       [64, 64, 6, 1026]         28,864
│    │    └─GraphConvLayer: 3-8          [64, 16, 6, 1026]         1,824
│    │    └─ReLU: 3-9                    [64, 16, 6, 1026]         --
│    │    └─TemporalConvLayer: 3-10      [64, 64, 4, 1026]         7,360
│    │    └─LayerNorm: 3-11              [64, 4, 1026, 64]         131,328
│    │    └─Dropout: 3-12                [64, 64, 4, 1026]         --
├─OutputBlock: 1-2                       [64, 12, 1, 1026]         --
│    └─TemporalConvLayer: 2-3            [64, 128, 1, 1026]        --
│    │    └─Align: 3-13                  [64, 128, 4, 1026]        8,320
│    │    └─CausalConv2d: 3-14           [64, 256, 1, 1026]        65,792
│    │    └─Sigmoid: 3-15                [64, 128, 1, 1026]        --
│    └─LayerNorm: 2-4                    [64, 1, 1026, 128]        262,656
│    └─Linear: 2-5                       [64, 1, 1026, 128]        16,512
│    └─ReLU: 2-6                         [64, 1, 1026, 128]        --
│    └─Linear: 2-7                       [64, 1, 1026, 12]         1,548
==========================================================================================
Total params: 665,356
Trainable params: 665,356
Non-trainable params: 0
Total mult-adds (G): 22.11
==========================================================================================
Input size (MB): 3.15
Forward/backward pass size (MB): 2830.38
Params size (MB): 2.60
Estimated Total Size (MB): 2836.14
…
