…
                64
            ],
            [
                128,
                128
            ],
            [
                12
            ]
        ],
        "T": 12,
        "act_func": "glu",
        "graph_conv_type": "cheb_graph_conv",
        "bias": true,
        "droprate": 0.5
    }
}
==========================================================================================
Layer (type:depth-idx)                   Output Shape              Param #
==========================================================================================
STGCN                                    [64, 12, 325, 1]          --
├─Sequential: 1-1                        [64, 64, 4, 325]          --
│    └─STConvBlock: 2-1                  [64, 64, 8, 325]          --
│    │    └─TemporalConvLayer: 3-1       [64, 64, 10, 325]         640
│    │    └─GraphConvLayer: 3-2          [64, 16, 10, 325]         1,824
│    │    └─ReLU: 3-3                    [64, 16, 10, 325]         --
│    │    └─TemporalConvLayer: 3-4       [64, 64, 8, 325]          7,360
│    │    └─LayerNorm: 3-5               [64, 8, 325, 64]          41,600
│    │    └─Dropout: 3-6                 [64, 64, 8, 325]          --
│    └─STConvBlock: 2-2                  [64, 64, 4, 325]          --
│    │    └─TemporalConvLayer: 3-7       [64, 64, 6, 325]          28,864
│    │    └─GraphConvLayer: 3-8          [64, 16, 6, 325]          1,824
│    │    └─ReLU: 3-9                    [64, 16, 6, 325]          --
│    │    └─TemporalConvLayer: 3-10      [64, 64, 4, 325]          7,360
│    │    └─LayerNorm: 3-11              [64, 4, 325, 64]          41,600
│    │    └─Dropout: 3-12                [64, 64, 4, 325]          --
├─OutputBlock: 1-2                       [64, 12, 1, 325]          --
│    └─TemporalConvLayer: 2-3            [64, 128, 1, 325]         --
│    │    └─Align: 3-13                  [64, 128, 4, 325]         8,320
│    │    └─CausalConv2d: 3-14           [64, 256, 1, 325]         65,792
│    │    └─Sigmoid: 3-15                [64, 128, 1, 325]         --
│    └─LayerNorm: 2-4                    [64, 1, 325, 128]         83,200
│    └─Linear: 2-5                       [64, 1, 325, 128]         16,512
│    └─ReLU: 2-6                         [64, 1, 325, 128]         --
│    └─Linear: 2-7                       [64, 1, 325, 12]          1,548
==========================================================================================
Total params: 306,444
Trainable params: 306,444
Non-trainable params: 0
Total mult-adds (G): 7.00
==========================================================================================
Input size (MB): 1.00
Forward/backward pass size (MB): 896.56
Params size (MB): 1.17
Estimated Total Size (MB): 898.73
==========================================================================================
…
