…
        "individual": 0,
        "padding_patch": "end",
        "revin": 1,
        "affine": 0,
        "subtract_last": 0,
        "decomposition": 0,
        "kernel_size": 25
    }
}
========================================================================================================================
Layer (type:depth-idx)                                                 Output Shape              Param #
========================================================================================================================
PatchTST                                                               [64, 24, 7, 1]            --
├─PatchTST_backbone: 1-1                                               [64, 7, 24]               --
│    └─RevIN: 2-1                                                      [64, 96, 7]               --
│    └─ReplicationPad1d: 2-2                                           [64, 7, 104]              --
│    └─TSTiEncoder: 2-3                                                [64, 7, 16, 12]           192
│    │    └─Linear: 3-1                                                [64, 7, 12, 16]           272
│    │    └─Dropout: 3-2                                               [448, 12, 16]             --
│    │    └─TSTEncoder: 3-3                                            [448, 12, 16]             16,179
│    └─Flatten_Head: 2-4                                               [64, 7, 24]               --
│    │    └─Flatten: 3-4                                               [64, 7, 192]              --
│    │    └─Linear: 3-5                                                [64, 7, 24]               4,632
│    │    └─Dropout: 3-6                                               [64, 7, 24]               --
│    └─RevIN: 2-5                                                      [64, 24, 7]               --
========================================================================================================================
Total params: 21,275
Trainable params: 21,272
Non-trainable params: 3
Total mult-adds (M): 7.56
========================================================================================================================
Input size (MB): 0.17
Forward/backward pass size (MB): 31.74
Params size (MB): 0.08
…
