…
        "individual": 0,
        "padding_patch": "end",
        "revin": 1,
        "affine": 0,
        "subtract_last": 0,
        "decomposition": 0,
        "kernel_size": 25
    }
}
========================================================================================================================
Layer (type:depth-idx)                                                 Output Shape              Param #
========================================================================================================================
PatchTST                                                               [64, 60, 7, 1]            --
├─PatchTST_backbone: 1-1                                               [64, 7, 60]               --
│    └─RevIN: 2-1                                                      [64, 36, 7]               --
│    └─ReplicationPad1d: 2-2                                           [64, 7, 44]               --
│    └─TSTiEncoder: 2-3                                                [64, 7, 16, 4]            64
│    │    └─Linear: 3-1                                                [64, 7, 4, 16]            272
│    │    └─Dropout: 3-2                                               [448, 4, 16]              --
│    │    └─TSTEncoder: 3-3                                            [448, 4, 16]              16,179
│    └─Flatten_Head: 2-4                                               [64, 7, 60]               --
│    │    └─Flatten: 3-4                                               [64, 7, 64]               --
│    │    └─Linear: 3-5                                                [64, 7, 60]               3,900
│    │    └─Dropout: 3-6                                               [64, 7, 60]               --
│    └─RevIN: 2-5                                                      [64, 60, 7]               --
========================================================================================================================
Total params: 20,415
Trainable params: 20,412
Non-trainable params: 3
Total mult-adds (M): 7.51
========================================================================================================================
Input size (MB): 0.06
Forward/backward pass size (MB): 10.77
Params size (MB): 0.08
…
