…
        "individual": 0,
        "padding_patch": "end",
        "revin": 1,
        "affine": 0,
        "subtract_last": 0,
        "decomposition": 0,
        "kernel_size": 25
    }
}
========================================================================================================================
Layer (type:depth-idx)                                                 Output Shape              Param #
========================================================================================================================
PatchTST                                                               [64, 720, 8, 1]           --
├─PatchTST_backbone: 1-1                                               [64, 8, 720]              --
│    └─RevIN: 2-1                                                      [64, 336, 8]              --
│    └─ReplicationPad1d: 2-2                                           [64, 8, 344]              --
│    └─TSTiEncoder: 2-3                                                [64, 8, 128, 42]          5,376
│    │    └─Linear: 3-1                                                [64, 8, 42, 128]          2,176
│    │    └─Dropout: 3-2                                               [512, 42, 128]            --
│    │    └─TSTEncoder: 3-3                                            [512, 42, 128]            397,443
│    └─Flatten_Head: 2-4                                               [64, 8, 720]              --
│    │    └─Flatten: 3-4                                               [64, 8, 5376]             --
│    │    └─Linear: 3-5                                                [64, 8, 720]              3,871,440
│    │    └─Dropout: 3-6                                               [64, 8, 720]              --
│    └─RevIN: 2-5                                                      [64, 720, 8]              --
========================================================================================================================
Total params: 4,276,435
Trainable params: 4,276,432
Non-trainable params: 3
Total mult-adds (M): 451.40
========================================================================================================================
Input size (MB): 0.69
Forward/backward pass size (MB): 619.51
…
