…
        "individual": 0,
        "padding_patch": "end",
        "revin": 1,
        "affine": 0,
        "subtract_last": 0,
        "decomposition": 0,
        "kernel_size": 25
    }
}
========================================================================================================================
Layer (type:depth-idx)                                                 Output Shape              Param #
========================================================================================================================
PatchTST                                                               [64, 720, 7, 1]           --
├─PatchTST_backbone: 1-1                                               [64, 7, 720]              --
│    └─RevIN: 2-1                                                      [64, 336, 7]              --
│    └─ReplicationPad1d: 2-2                                           [64, 7, 344]              --
│    └─TSTiEncoder: 2-3                                                [64, 7, 16, 42]           672
│    │    └─Linear: 3-1                                                [64, 7, 42, 16]           272
│    │    └─Dropout: 3-2                                               [448, 42, 16]             --
│    │    └─TSTEncoder: 3-3                                            [448, 42, 16]             16,179
│    └─Flatten_Head: 2-4                                               [64, 7, 720]              --
│    │    └─Flatten: 3-4                                               [64, 7, 672]              --
│    │    └─Linear: 3-5                                                [64, 7, 720]              484,560
│    │    └─Dropout: 3-6                                               [64, 7, 720]              --
│    └─RevIN: 2-5                                                      [64, 720, 7]              --
========================================================================================================================
Total params: 501,683
Trainable params: 501,680
Non-trainable params: 3
Total mult-adds (M): 38.28
========================================================================================================================
Input size (MB): 0.60
Forward/backward pass size (MB): 113.37
…
