…
        "individual": 0,
        "padding_patch": "end",
        "revin": 1,
        "affine": 0,
        "subtract_last": 0,
        "decomposition": 0,
        "kernel_size": 25
    }
}
========================================================================================================================
Layer (type:depth-idx)                                                 Output Shape              Param #
========================================================================================================================
PatchTST                                                               [32, 336, 321, 1]         --
├─PatchTST_backbone: 1-1                                               [32, 321, 336]            --
│    └─RevIN: 2-1                                                      [32, 336, 321]            --
│    └─ReplicationPad1d: 2-2                                           [32, 321, 344]            --
│    └─TSTiEncoder: 2-3                                                [32, 321, 128, 42]        5,376
│    │    └─Linear: 3-1                                                [32, 321, 42, 128]        2,176
│    │    └─Dropout: 3-2                                               [10272, 42, 128]          --
│    │    └─TSTEncoder: 3-3                                            [10272, 42, 128]          397,443
│    └─Flatten_Head: 2-4                                               [32, 321, 336]            --
│    │    └─Flatten: 3-4                                               [32, 321, 5376]           --
│    │    └─Linear: 3-5                                                [32, 321, 336]            1,806,672
│    │    └─Dropout: 3-6                                               [32, 321, 336]            --
│    └─RevIN: 2-5                                                      [32, 336, 321]            --
========================================================================================================================
Total params: 2,211,667
Trainable params: 2,211,664
Non-trainable params: 3
Total mult-adds (G): 4.14
========================================================================================================================
Input size (MB): 13.81
Forward/backward pass size (MB): 12397.40
…
