…
        "individual": 0,
        "padding_patch": "end",
        "revin": 1,
        "affine": 0,
        "subtract_last": 0,
        "decomposition": 0,
        "kernel_size": 25
    }
}
========================================================================================================================
Layer (type:depth-idx)                                                 Output Shape              Param #
========================================================================================================================
PatchTST                                                               [64, 192, 21, 1]          --
├─PatchTST_backbone: 1-1                                               [64, 21, 192]             --
│    └─RevIN: 2-1                                                      [64, 336, 21]             --
│    └─ReplicationPad1d: 2-2                                           [64, 21, 344]             --
│    └─TSTiEncoder: 2-3                                                [64, 21, 128, 42]         5,376
│    │    └─Linear: 3-1                                                [64, 21, 42, 128]         2,176
│    │    └─Dropout: 3-2                                               [1344, 42, 128]           --
│    │    └─TSTEncoder: 3-3                                            [1344, 42, 128]           397,443
│    └─Flatten_Head: 2-4                                               [64, 21, 192]             --
│    │    └─Flatten: 3-4                                               [64, 21, 5376]            --
│    │    └─Linear: 3-5                                                [64, 21, 192]             1,032,384
│    │    └─Dropout: 3-6                                               [64, 21, 192]             --
│    └─RevIN: 2-5                                                      [64, 192, 21]             --
========================================================================================================================
Total params: 1,437,379
Trainable params: 1,437,376
Non-trainable params: 3
Total mult-adds (M): 600.37
========================================================================================================================
Input size (MB): 1.81
Forward/backward pass size (MB): 1620.54
…
