…
    "milestones": [
        5
    ],
    "lr_decay_rate": 0.1,
    "clip_grad": 0,
    "batch_size": 64,
    "max_epochs": 10,
    "dataloader": "ltsf",
    "runner": "ltsf",
    "loss": "mse",
    "model_args": {
        "enc_in": 7,
        "seq_len": 96,
        "pred_len": 60,
        "individual": false
    }
}
==========================================================================================
Layer (type:depth-idx)                   Output Shape              Param #
==========================================================================================
DLinear                                  [64, 60, 7, 1]            --
├─series_decomp: 1-1                     [64, 96, 7]               --
│    └─moving_avg: 2-1                   [64, 96, 7]               --
│    │    └─AvgPool1d: 3-1               [64, 7, 96]               --
├─Linear: 1-2                            [64, 7, 60]               5,820
├─Linear: 1-3                            [64, 7, 60]               5,820
==========================================================================================
Total params: 11,640
Trainable params: 11,640
Non-trainable params: 0
Total mult-adds (M): 0.74
==========================================================================================
Input size (MB): 0.17
Forward/backward pass size (MB): 0.43
Params size (MB): 0.05
Estimated Total Size (MB): 0.65
==========================================================================================
…
