…
    "weight_decay": 0,
    "milestones": [
        10
    ],
    "lr_decay_rate": 0.1,
    "clip_grad": 0,
    "batch_size": 64,
    "max_epochs": 200,
    "runner": "ltsf",
    "loss": "mse",
    "model_args": {
        "seq_len": 336,
        "pred_len": 96,
        "individual": false,
        "enc_in": 207
    }
}
==========================================================================================
Layer (type:depth-idx)                   Output Shape              Param #
==========================================================================================
DLinear                                  [64, 96, 321, 1]          --
├─series_decomp: 1-1                     [64, 336, 321]            --
│    └─moving_avg: 2-1                   [64, 336, 321]            --
│    │    └─AvgPool1d: 3-1               [64, 321, 336]            --
├─Linear: 1-2                            [64, 321, 96]             32,352
├─Linear: 1-3                            [64, 321, 96]             32,352
==========================================================================================
Total params: 64,704
Trainable params: 64,704
Non-trainable params: 0
Total mult-adds (M): 4.14
==========================================================================================
Input size (MB): 27.61
Forward/backward pass size (MB): 31.56
Params size (MB): 0.26
Estimated Total Size (MB): 59.43
==========================================================================================
…
