…
        "input_dim": 1,
        "output_dim": 1,
        "lstm_hidden_dim": 32,
        "tod_embedding_dim": 24,
        "dow_embedding_dim": 7,
        "node_embedding_dim": 64,
        "learner_hidden_dim": 64,
        "z_dim": 32,
        "num_layers": 3,
        "seq2seq": false,
        "device": "cuda:0"
    }
}
==========================================================================================
Layer (type:depth-idx)                   Output Shape              Param #
==========================================================================================
STMetaLSTM                               [64, 12, 207, 1]          13,248
├─Sequential: 1-1                        [64, 207, 32]             --
│    └─Linear: 2-1                       [64, 207, 32]             416
│    └─Tanh: 2-2                         [64, 207, 32]             --
│    └─Linear: 2-3                       [64, 207, 32]             1,056
│    └─Tanh: 2-4                         [64, 207, 32]             --
│    └─Linear: 2-5                       [64, 207, 32]             1,056
├─Sequential: 1-2                        [64, 207, 32]             --
│    └─Linear: 2-6                       [64, 207, 32]             416
│    └─Tanh: 2-7                         [64, 207, 32]             --
│    └─Linear: 2-8                       [64, 207, 32]             1,056
│    └─Tanh: 2-9                         [64, 207, 32]             --
│    └─Linear: 2-10                      [64, 207, 32]             1,056
├─ModuleList: 1-3                        --                        --
│    └─STMetaLSTMEncoder: 2-11           [64, 12, 207, 32]         --
│    │    └─Sequential: 3-1              [64, 207, 128]            16,512
│    │    └─Sequential: 3-2              [64, 207, 4096]           274,432
│    │    └─Sequential: 3-3              [64, 207, 128]            16,512
│    │    └─STMetaLSTMCell: 3-4          [64, 207, 32]             --
│    │    └─STMetaLSTMCell: 3-5          [64, 207, 32]             --
│    │    └─STMetaLSTMCell: 3-6          [64, 207, 32]             --
│    │    └─STMetaLSTMCell: 3-7          [64, 207, 32]             --
│    │    └─STMetaLSTMCell: 3-8          [64, 207, 32]             --
│    │    └─STMetaLSTMCell: 3-9          [64, 207, 32]             --
│    │    └─STMetaLSTMCell: 3-10         [64, 207, 32]             --
│    │    └─STMetaLSTMCell: 3-11         [64, 207, 32]             --
│    │    └─STMetaLSTMCell: 3-12         [64, 207, 32]             --
│    │    └─STMetaLSTMCell: 3-13         [64, 207, 32]             --
│    │    └─STMetaLSTMCell: 3-14         [64, 207, 32]             --
│    │    └─STMetaLSTMCell: 3-15         [64, 207, 32]             --
│    └─STMetaLSTMEncoder: 2-12           [64, 12, 207, 32]         --
│    │    └─Sequential: 3-16             [64, 207, 4096]           274,432
│    │    └─Sequential: 3-17             [64, 207, 4096]           274,432
│    │    └─Sequential: 3-18             [64, 207, 128]            16,512
│    │    └─STMetaLSTMCell: 3-19         [64, 207, 32]             --
│    │    └─STMetaLSTMCell: 3-20         [64, 207, 32]             --
│    │    └─STMetaLSTMCell: 3-21         [64, 207, 32]             --
│    │    └─STMetaLSTMCell: 3-22         [64, 207, 32]             --
│    │    └─STMetaLSTMCell: 3-23         [64, 207, 32]             --
│    │    └─STMetaLSTMCell: 3-24         [64, 207, 32]             --
│    │    └─STMetaLSTMCell: 3-25         [64, 207, 32]             --
│    │    └─STMetaLSTMCell: 3-26         [64, 207, 32]             --
│    │    └─STMetaLSTMCell: 3-27         [64, 207, 32]             --
│    │    └─STMetaLSTMCell: 3-28         [64, 207, 32]             --
│    │    └─STMetaLSTMCell: 3-29         [64, 207, 32]             --
│    │    └─STMetaLSTMCell: 3-30         [64, 207, 32]             --
│    └─STMetaLSTMEncoder: 2-13           [64, 12, 207, 32]         --
│    │    └─Sequential: 3-31             [64, 207, 4096]           274,432
│    │    └─Sequential: 3-32             [64, 207, 4096]           274,432
│    │    └─Sequential: 3-33             [64, 207, 128]            16,512
│    │    └─STMetaLSTMCell: 3-34         [64, 207, 32]             --
│    │    └─STMetaLSTMCell: 3-35         [64, 207, 32]             --
│    │    └─STMetaLSTMCell: 3-36         [64, 207, 32]             --
│    │    └─STMetaLSTMCell: 3-37         [64, 207, 32]             --
│    │    └─STMetaLSTMCell: 3-38         [64, 207, 32]             --
│    │    └─STMetaLSTMCell: 3-39         [64, 207, 32]             --
│    │    └─STMetaLSTMCell: 3-40         [64, 207, 32]             --
│    │    └─STMetaLSTMCell: 3-41         [64, 207, 32]             --
│    │    └─STMetaLSTMCell: 3-42         [64, 207, 32]             --
│    │    └─STMetaLSTMCell: 3-43         [64, 207, 32]             --
│    │    └─STMetaLSTMCell: 3-44         [64, 207, 32]             --
│    │    └─STMetaLSTMCell: 3-45         [64, 207, 32]             --
├─Linear: 1-4                            [64, 207, 12]             396
==========================================================================================
Total params: 1,456,908
Trainable params: 1,456,908
Non-trainable params: 0
Total mult-adds (M): 92.39
==========================================================================================
Input size (MB): 1.91
Forward/backward pass size (MB): 2307.48
Params size (MB): 5.77
Estimated Total Size (MB): 2315.17
…
