…
        "input_dim": 1,
        "output_dim": 1,
        "lstm_hidden_dim": 64,
        "tod_embedding_dim": 24,
        "dow_embedding_dim": 7,
        "node_embedding_dim": 64,
        "learner_hidden_dim": 128,
        "z_dim": 32,
        "num_layers": 1,
        "seq2seq": false,
        "device": "cuda:0"
    }
}
==========================================================================================
Layer (type:depth-idx)                   Output Shape              Param #
==========================================================================================
STMetaLSTM                               [64, 12, 207, 1]          13,248
├─Sequential: 1-1                        [64, 207, 32]             --
│    └─Linear: 2-1                       [64, 207, 32]             416
│    └─Tanh: 2-2                         [64, 207, 32]             --
│    └─Linear: 2-3                       [64, 207, 32]             1,056
│    └─Tanh: 2-4                         [64, 207, 32]             --
│    └─Linear: 2-5                       [64, 207, 32]             1,056
├─Sequential: 1-2                        [64, 207, 32]             --
│    └─Linear: 2-6                       [64, 207, 32]             416
│    └─Tanh: 2-7                         [64, 207, 32]             --
│    └─Linear: 2-8                       [64, 207, 32]             1,056
│    └─Tanh: 2-9                         [64, 207, 32]             --
│    └─Linear: 2-10                      [64, 207, 32]             1,056
├─ModuleList: 1-3                        --                        --
│    └─STMetaLSTMEncoder: 2-11           [64, 12, 207, 64]         --
│    │    └─Sequential: 3-1              [64, 207, 256]            49,408
│    │    └─Sequential: 3-2              [64, 207, 16384]          2,129,920
│    │    └─Sequential: 3-3              [64, 207, 256]            49,408
│    │    └─STMetaLSTMCell: 3-4          [64, 207, 64]             --
│    │    └─STMetaLSTMCell: 3-5          [64, 207, 64]             --
│    │    └─STMetaLSTMCell: 3-6          [64, 207, 64]             --
│    │    └─STMetaLSTMCell: 3-7          [64, 207, 64]             --
│    │    └─STMetaLSTMCell: 3-8          [64, 207, 64]             --
│    │    └─STMetaLSTMCell: 3-9          [64, 207, 64]             --
│    │    └─STMetaLSTMCell: 3-10         [64, 207, 64]             --
│    │    └─STMetaLSTMCell: 3-11         [64, 207, 64]             --
│    │    └─STMetaLSTMCell: 3-12         [64, 207, 64]             --
│    │    └─STMetaLSTMCell: 3-13         [64, 207, 64]             --
│    │    └─STMetaLSTMCell: 3-14         [64, 207, 64]             --
│    │    └─STMetaLSTMCell: 3-15         [64, 207, 64]             --
├─Linear: 1-4                            [64, 207, 12]             780
==========================================================================================
Total params: 2,247,820
Trainable params: 2,247,820
Non-trainable params: 0
Total mult-adds (M): 143.01
==========================================================================================
Input size (MB): 1.91
Forward/backward pass size (MB): 1853.02
Params size (MB): 8.94
Estimated Total Size (MB): 1863.87
…
