…
        "towards": true
    }
}
==========================================================================================
Layer (type:depth-idx)                   Output Shape              Param #
==========================================================================================
STMetaLSTM                               --                        --
├─ModuleList: 1-1                        --                        --
├─ModuleList: 1-2                        --                        --
├─ModuleList: 1-3                        --                        --
├─Sequential: 1-4                        [64, 207, 32]             --
│    └─Linear: 2-1                       [64, 207, 32]             416
│    └─Tanh: 2-2                         [64, 207, 32]             --
│    └─Linear: 2-3                       [64, 207, 32]             1,056
│    └─Tanh: 2-4                         [64, 207, 32]             --
│    └─Linear: 2-5                       [64, 207, 32]             1,056
├─Sequential: 1-5                        [64, 207, 32]             --
│    └─Linear: 2-6                       [64, 207, 32]             416
│    └─Tanh: 2-7                         [64, 207, 32]             --
│    └─Linear: 2-8                       [64, 207, 32]             1,056
│    └─Tanh: 2-9                         [64, 207, 32]             --
│    └─Linear: 2-10                      [64, 207, 32]             1,056
├─ModuleList: 1-1                        --                        --
│    └─Sequential: 2-11                  [64, 207, 64]             --
│    │    └─Linear: 3-1                  [64, 207, 64]             8,256
│    │    └─ReLU: 3-2                    [64, 207, 64]             --
│    │    └─Linear: 3-3                  [64, 207, 64]             4,160
├─ModuleList: 1-2                        --                        --
│    └─Sequential: 2-12                  [64, 207, 4096]           --
│    │    └─Linear: 3-4                  [64, 207, 64]             8,256
│    │    └─ReLU: 3-5                    [64, 207, 64]             --
│    │    └─Linear: 3-6                  [64, 207, 4096]           266,240
├─ModuleList: 1-3                        --                        --
│    └─Sequential: 2-13                  [64, 207, 64]             --
│    │    └─Linear: 3-7                  [64, 207, 64]             8,256
│    │    └─ReLU: 3-8                    [64, 207, 64]             --
│    │    └─Linear: 3-9                  [64, 207, 64]             4,160
├─ModuleList: 1-1                        --                        --
│    └─Sequential: 2-14                  [64, 207, 64]             --
│    │    └─Linear: 3-10                 [64, 207, 64]             8,256
│    │    └─ReLU: 3-11                   [64, 207, 64]             --
│    │    └─Linear: 3-12                 [64, 207, 64]             4,160
├─ModuleList: 1-2                        --                        --
│    └─Sequential: 2-15                  [64, 207, 4096]           --
│    │    └─Linear: 3-13                 [64, 207, 64]             8,256
│    │    └─ReLU: 3-14                   [64, 207, 64]             --
│    │    └─Linear: 3-15                 [64, 207, 4096]           266,240
├─ModuleList: 1-3                        --                        --
│    └─Sequential: 2-16                  [64, 207, 64]             --
│    │    └─Linear: 3-16                 [64, 207, 64]             8,256
│    │    └─ReLU: 3-17                   [64, 207, 64]             --
│    │    └─Linear: 3-18                 [64, 207, 64]             4,160
├─ModuleList: 1-1                        --                        --
│    └─Sequential: 2-17                  [64, 207, 64]             --
│    │    └─Linear: 3-19                 [64, 207, 64]             8,256
│    │    └─ReLU: 3-20                   [64, 207, 64]             --
│    │    └─Linear: 3-21                 [64, 207, 64]             4,160
├─ModuleList: 1-2                        --                        --
│    └─Sequential: 2-18                  [64, 207, 4096]           --
│    │    └─Linear: 3-22                 [64, 207, 64]             8,256
│    │    └─ReLU: 3-23                   [64, 207, 64]             --
│    │    └─Linear: 3-24                 [64, 207, 4096]           266,240
├─ModuleList: 1-3                        --                        --
│    └─Sequential: 2-19                  [64, 207, 64]             --
│    │    └─Linear: 3-25                 [64, 207, 64]             8,256
│    │    └─ReLU: 3-26                   [64, 207, 64]             --
│    │    └─Linear: 3-27                 [64, 207, 64]             4,160
├─ModuleList: 1-1                        --                        --
│    └─Sequential: 2-20                  [64, 207, 64]             --
│    │    └─Linear: 3-28                 [64, 207, 64]             8,256
│    │    └─ReLU: 3-29                   [64, 207, 64]             --
│    │    └─Linear: 3-30                 [64, 207, 64]             4,160
├─ModuleList: 1-2                        --                        --
│    └─Sequential: 2-21                  [64, 207, 4096]           --
│    │    └─Linear: 3-31                 [64, 207, 64]             8,256
│    │    └─ReLU: 3-32                   [64, 207, 64]             --
│    │    └─Linear: 3-33                 [64, 207, 4096]           266,240
├─ModuleList: 1-3                        --                        --
│    └─Sequential: 2-22                  [64, 207, 64]             --
│    │    └─Linear: 3-34                 [64, 207, 64]             8,256
│    │    └─ReLU: 3-35                   [64, 207, 64]             --
│    │    └─Linear: 3-36                 [64, 207, 64]             4,160
├─Sequential: 1-6                        [64, 207, 12]             --
│    └─ReLU: 2-23                        [64, 207, 64]             --
│    └─Linear: 2-24                      [64, 207, 32]             2,080
│    └─ReLU: 2-25                        [64, 207, 32]             --
│    └─Linear: 2-26                      [64, 207, 12]             396
==========================================================================================
Total params: 1,204,844
Trainable params: 1,204,844
Non-trainable params: 0
Total mult-adds (M): 77.11
==========================================================================================
Input size (MB): 61.68
Forward/backward pass size (MB): 1897.11
Params size (MB): 4.82
Estimated Total Size (MB): 1963.62
…
