…
    "batch_size": 64,
    "max_epochs": 200,
    "use_cl": false,
    "load_npz": false,
    "with_embeddings": true,
    "model_args": {
        "num_nodes": 207,
        "out_steps": 12,
        "lstm_input_dim": 1,
        "lstm_hidden_dim": 64,
        "t_embedding_dim": 32,
        "learner_hidden_dim": 64
    }
}
==========================================================================================
Layer (type:depth-idx)                   Output Shape              Param #
==========================================================================================
TMetaLSTM                                [64, 12, 207, 1]          --
├─ModuleList: 1-10                       --                        (recursive)
│    └─Sequential: 2-1                   [64, 64]                  --
│    │    └─Linear: 3-1                  [64, 64]                  2,112
│    │    └─ReLU: 3-2                    [64, 64]                  --
│    │    └─Linear: 3-3                  [64, 64]                  4,160
├─ModuleList: 1-11                       --                        (recursive)
│    └─Sequential: 2-2                   [64, 4096]                --
│    │    └─Linear: 3-4                  [64, 64]                  2,112
│    │    └─ReLU: 3-5                    [64, 64]                  --
│    │    └─Linear: 3-6                  [64, 4096]                266,240
├─ModuleList: 1-12                       --                        (recursive)
│    └─Sequential: 2-3                   [64, 64]                  --
│    │    └─Linear: 3-7                  [64, 64]                  2,112
│    │    └─ReLU: 3-8                    [64, 64]                  --
│    │    └─Linear: 3-9                  [64, 64]                  4,160
├─ModuleList: 1-10                       --                        (recursive)
│    └─Sequential: 2-4                   [64, 64]                  --
│    │    └─Linear: 3-10                 [64, 64]                  2,112
│    │    └─ReLU: 3-11                   [64, 64]                  --
│    │    └─Linear: 3-12                 [64, 64]                  4,160
├─ModuleList: 1-11                       --                        (recursive)
│    └─Sequential: 2-5                   [64, 4096]                --
│    │    └─Linear: 3-13                 [64, 64]                  2,112
│    │    └─ReLU: 3-14                   [64, 64]                  --
│    │    └─Linear: 3-15                 [64, 4096]                266,240
├─ModuleList: 1-12                       --                        (recursive)
│    └─Sequential: 2-6                   [64, 64]                  --
│    │    └─Linear: 3-16                 [64, 64]                  2,112
│    │    └─ReLU: 3-17                   [64, 64]                  --
│    │    └─Linear: 3-18                 [64, 64]                  4,160
├─ModuleList: 1-10                       --                        (recursive)
│    └─Sequential: 2-7                   [64, 64]                  --
│    │    └─Linear: 3-19                 [64, 64]                  2,112
│    │    └─ReLU: 3-20                   [64, 64]                  --
│    │    └─Linear: 3-21                 [64, 64]                  4,160
├─ModuleList: 1-11                       --                        (recursive)
│    └─Sequential: 2-8                   [64, 4096]                --
│    │    └─Linear: 3-22                 [64, 64]                  2,112
│    │    └─ReLU: 3-23                   [64, 64]                  --
│    │    └─Linear: 3-24                 [64, 4096]                266,240
├─ModuleList: 1-12                       --                        (recursive)
│    └─Sequential: 2-9                   [64, 64]                  --
│    │    └─Linear: 3-25                 [64, 64]                  2,112
│    │    └─ReLU: 3-26                   [64, 64]                  --
│    │    └─Linear: 3-27                 [64, 64]                  4,160
├─ModuleList: 1-10                       --                        (recursive)
│    └─Sequential: 2-10                  [64, 64]                  --
│    │    └─Linear: 3-28                 [64, 64]                  2,112
│    │    └─ReLU: 3-29                   [64, 64]                  --
│    │    └─Linear: 3-30                 [64, 64]                  4,160
├─ModuleList: 1-11                       --                        (recursive)
│    └─Sequential: 2-11                  [64, 4096]                --
│    │    └─Linear: 3-31                 [64, 64]                  2,112
│    │    └─ReLU: 3-32                   [64, 64]                  --
│    │    └─Linear: 3-33                 [64, 4096]                266,240
├─ModuleList: 1-12                       --                        (recursive)
│    └─Sequential: 2-12                  [64, 64]                  --
│    │    └─Linear: 3-34                 [64, 64]                  2,112
│    │    └─ReLU: 3-35                   [64, 64]                  --
│    │    └─Linear: 3-36                 [64, 64]                  4,160
├─Sequential: 1-13                       [64, 207, 12]             --
│    └─ReLU: 2-13                        [64, 207, 64]             --
│    └─Linear: 2-14                      [64, 207, 32]             2,080
│    └─ReLU: 2-15                        [64, 207, 32]             --
│    └─Linear: 2-16                      [64, 207, 12]             396
==========================================================================================
Total params: 1,126,060
Trainable params: 1,126,060
Non-trainable params: 0
Total mult-adds (M): 72.07
==========================================================================================
Input size (MB): 61.68
Forward/backward pass size (MB): 13.71
Params size (MB): 4.50
Estimated Total Size (MB): 79.89
…
