…
        "num_nodes": 207,
        "in_steps": 12,
        "out_steps": 12,
        "input_dim": 1,
        "output_dim": 1,
        "model_dim": 64,
        "feed_forward_dim": 256,
        "num_heads": 4,
        "num_layers": 3
    }
}
==========================================================================================
Layer (type:depth-idx)                   Output Shape              Param #
==========================================================================================
Attention                                --                        --
├─Linear: 1-1                            [64, 207, 12, 64]         128
├─Linear: 1-2                            [64, 207, 12, 64]         128
├─Sequential: 1-3                        [64, 207, 12, 64]         --
│    └─SelfAttentionLayer: 2-1           [64, 207, 12, 64]         --
│    │    └─AttentionLayer: 3-1          [64, 207, 12, 64]         12,480
│    │    └─LayerNorm: 3-2               [64, 207, 12, 64]         128
│    │    └─Sequential: 3-3              [64, 207, 12, 64]         33,088
│    │    └─LayerNorm: 3-4               [64, 207, 12, 64]         128
│    └─SelfAttentionLayer: 2-2           [64, 207, 12, 64]         --
│    │    └─AttentionLayer: 3-5          [64, 207, 12, 64]         12,480
│    │    └─LayerNorm: 3-6               [64, 207, 12, 64]         128
│    │    └─Sequential: 3-7              [64, 207, 12, 64]         33,088
│    │    └─LayerNorm: 3-8               [64, 207, 12, 64]         128
│    └─SelfAttentionLayer: 2-3           [64, 207, 12, 64]         --
│    │    └─AttentionLayer: 3-9          [64, 207, 12, 64]         12,480
│    │    └─LayerNorm: 3-10              [64, 207, 12, 64]         128
│    │    └─Sequential: 3-11             [64, 207, 12, 64]         33,088
│    │    └─LayerNorm: 3-12              [64, 207, 12, 64]         128
├─Linear: 1-4                            [64, 207, 64, 12]         156
├─Linear: 1-5                            [64, 207, 12, 1]          65
==========================================================================================
Total params: 137,949
Trainable params: 137,949
Non-trainable params: 0
Total mult-adds (M): 8.83
==========================================================================================
Input size (MB): 1.27
Forward/backward pass size (MB): 2687.33
Params size (MB): 0.55
Estimated Total Size (MB): 2689.15
…
