…
        "num_nodes": 207,
        "in_steps": 12,
        "out_steps": 12,
        "input_dim": 1,
        "output_dim": 1,
        "model_dim": 256,
        "feed_forward_dim": 512,
        "num_heads": 8,
        "num_layers": 3
    }
}
==========================================================================================
Layer (type:depth-idx)                   Output Shape              Param #
==========================================================================================
Attention                                --                        --
├─Linear: 1-1                            [64, 207, 12, 256]        512
├─Linear: 1-2                            [64, 207, 12, 256]        512
├─Sequential: 1-3                        [64, 207, 12, 256]        --
│    └─SelfAttentionLayer: 2-1           [64, 207, 12, 256]        --
│    │    └─AttentionLayer: 3-1          [64, 207, 12, 256]        197,376
│    │    └─LayerNorm: 3-2               [64, 207, 12, 256]        512
│    │    └─Sequential: 3-3              [64, 207, 12, 256]        262,912
│    │    └─LayerNorm: 3-4               [64, 207, 12, 256]        512
│    └─SelfAttentionLayer: 2-2           [64, 207, 12, 256]        --
│    │    └─AttentionLayer: 3-5          [64, 207, 12, 256]        197,376
│    │    └─LayerNorm: 3-6               [64, 207, 12, 256]        512
│    │    └─Sequential: 3-7              [64, 207, 12, 256]        262,912
│    │    └─LayerNorm: 3-8               [64, 207, 12, 256]        512
│    └─SelfAttentionLayer: 2-3           [64, 207, 12, 256]        --
│    │    └─AttentionLayer: 3-9          [64, 207, 12, 256]        197,376
│    │    └─LayerNorm: 3-10              [64, 207, 12, 256]        512
│    │    └─Sequential: 3-11             [64, 207, 12, 256]        262,912
│    │    └─LayerNorm: 3-12              [64, 207, 12, 256]        512
├─Linear: 1-4                            [64, 207, 256, 12]        156
├─Linear: 1-5                            [64, 207, 12, 1]          257
==========================================================================================
Total params: 1,385,373
Trainable params: 1,385,373
Non-trainable params: 0
Total mult-adds (M): 88.66
==========================================================================================
Input size (MB): 1.27
Forward/backward pass size (MB): 8792.01
Params size (MB): 5.54
Estimated Total Size (MB): 8798.82
…
