…
    "max_epochs": 200,
    "use_cl": false,
    "model_args": {
        "num_nodes": 358,
        "in_steps": 12,
        "out_steps": 12,
        "input_dim": 1,
        "output_dim": 1,
        "model_dim": 64,
        "feed_forward_dim": 256,
        "num_heads": 4,
        "num_layers": 3
    }
}
==========================================================================================
Layer (type:depth-idx)                   Output Shape              Param #
==========================================================================================
Attention                                [64, 12, 358, 1]          --
├─Linear: 1-1                            [64, 12, 358, 64]         128
├─Linear: 1-2                            [64, 12, 358, 64]         128
├─ModuleList: 1-3                        --                        --
│    └─SelfAttentionLayer: 2-1           [64, 12, 358, 64]         --
│    │    └─AttentionLayer: 3-1          [64, 358, 12, 64]         16,640
│    │    └─Dropout: 3-2                 [64, 358, 12, 64]         --
│    │    └─LayerNorm: 3-3               [64, 358, 12, 64]         128
│    │    └─Sequential: 3-4              [64, 358, 12, 64]         33,088
│    │    └─Dropout: 3-5                 [64, 358, 12, 64]         --
│    │    └─LayerNorm: 3-6               [64, 358, 12, 64]         128
│    └─SelfAttentionLayer: 2-2           [64, 12, 358, 64]         --
│    │    └─AttentionLayer: 3-7          [64, 358, 12, 64]         16,640
│    │    └─Dropout: 3-8                 [64, 358, 12, 64]         --
│    │    └─LayerNorm: 3-9               [64, 358, 12, 64]         128
│    │    └─Sequential: 3-10             [64, 358, 12, 64]         33,088
│    │    └─Dropout: 3-11                [64, 358, 12, 64]         --
│    │    └─LayerNorm: 3-12              [64, 358, 12, 64]         128
│    └─SelfAttentionLayer: 2-3           [64, 12, 358, 64]         --
│    │    └─AttentionLayer: 3-13         [64, 358, 12, 64]         16,640
│    │    └─Dropout: 3-14                [64, 358, 12, 64]         --
│    │    └─LayerNorm: 3-15              [64, 358, 12, 64]         128
│    │    └─Sequential: 3-16             [64, 358, 12, 64]         33,088
│    │    └─Dropout: 3-17                [64, 358, 12, 64]         --
│    │    └─LayerNorm: 3-18              [64, 358, 12, 64]         128
├─Linear: 1-4                            [64, 64, 358, 12]         156
├─Linear: 1-5                            [64, 12, 358, 1]          65
==========================================================================================
Total params: 150,429
Trainable params: 150,429
Non-trainable params: 0
Total mult-adds (M): 9.63
==========================================================================================
Input size (MB): 2.20
Forward/backward pass size (MB): 5069.97
Params size (MB): 0.60
Estimated Total Size (MB): 5072.77
…
