…
    "use_cl": false,
    "model_args": {
        "num_nodes": 883,
        "in_steps": 12,
        "out_steps": 12,
        "input_dim": 1,
        "output_dim": 1,
        "model_dim": 64,
        "feed_forward_dim": 256,
        "num_heads": 4,
        "num_layers": 3,
        "with_spatial": true
    }
}
==========================================================================================
Layer (type:depth-idx)                   Output Shape              Param #
==========================================================================================
Attention                                [32, 12, 883, 1]          --
├─Linear: 1-1                            [32, 12, 883, 64]         128
├─Linear: 1-2                            [32, 12, 883, 64]         128
├─ModuleList: 1-3                        --                        --
│    └─SelfAttentionLayer: 2-1           [32, 12, 883, 64]         --
│    │    └─AttentionLayer: 3-1          [32, 883, 12, 64]         16,640
│    │    └─Dropout: 3-2                 [32, 883, 12, 64]         --
│    │    └─LayerNorm: 3-3               [32, 883, 12, 64]         128
│    │    └─Sequential: 3-4              [32, 883, 12, 64]         33,088
│    │    └─Dropout: 3-5                 [32, 883, 12, 64]         --
│    │    └─LayerNorm: 3-6               [32, 883, 12, 64]         128
│    └─SelfAttentionLayer: 2-2           [32, 12, 883, 64]         --
│    │    └─AttentionLayer: 3-7          [32, 883, 12, 64]         16,640
│    │    └─Dropout: 3-8                 [32, 883, 12, 64]         --
│    │    └─LayerNorm: 3-9               [32, 883, 12, 64]         128
│    │    └─Sequential: 3-10             [32, 883, 12, 64]         33,088
│    │    └─Dropout: 3-11                [32, 883, 12, 64]         --
│    │    └─LayerNorm: 3-12              [32, 883, 12, 64]         128
│    └─SelfAttentionLayer: 2-3           [32, 12, 883, 64]         --
│    │    └─AttentionLayer: 3-13         [32, 883, 12, 64]         16,640
│    │    └─Dropout: 3-14                [32, 883, 12, 64]         --
│    │    └─LayerNorm: 3-15              [32, 883, 12, 64]         128
│    │    └─Sequential: 3-16             [32, 883, 12, 64]         33,088
│    │    └─Dropout: 3-17                [32, 883, 12, 64]         --
│    │    └─LayerNorm: 3-18              [32, 883, 12, 64]         128
├─ModuleList: 1-4                        --                        --
│    └─SelfAttentionLayer: 2-4           [32, 12, 883, 64]         --
│    │    └─AttentionLayer: 3-19         [32, 12, 883, 64]         16,640
│    │    └─Dropout: 3-20                [32, 12, 883, 64]         --
│    │    └─LayerNorm: 3-21              [32, 12, 883, 64]         128
│    │    └─Sequential: 3-22             [32, 12, 883, 64]         33,088
│    │    └─Dropout: 3-23                [32, 12, 883, 64]         --
│    │    └─LayerNorm: 3-24              [32, 12, 883, 64]         128
│    └─SelfAttentionLayer: 2-5           [32, 12, 883, 64]         --
│    │    └─AttentionLayer: 3-25         [32, 12, 883, 64]         16,640
│    │    └─Dropout: 3-26                [32, 12, 883, 64]         --
│    │    └─LayerNorm: 3-27              [32, 12, 883, 64]         128
│    │    └─Sequential: 3-28             [32, 12, 883, 64]         33,088
│    │    └─Dropout: 3-29                [32, 12, 883, 64]         --
│    │    └─LayerNorm: 3-30              [32, 12, 883, 64]         128
│    └─SelfAttentionLayer: 2-6           [32, 12, 883, 64]         --
│    │    └─AttentionLayer: 3-31         [32, 12, 883, 64]         16,640
│    │    └─Dropout: 3-32                [32, 12, 883, 64]         --
│    │    └─LayerNorm: 3-33              [32, 12, 883, 64]         128
│    │    └─Sequential: 3-34             [32, 12, 883, 64]         33,088
│    │    └─Dropout: 3-35                [32, 12, 883, 64]         --
│    │    └─LayerNorm: 3-36              [32, 12, 883, 64]         128
├─Linear: 1-5                            [32, 64, 883, 12]         156
├─Linear: 1-6                            [32, 12, 883, 1]          65
==========================================================================================
Total params: 300,381
Trainable params: 300,381
Non-trainable params: 0
Total mult-adds (M): 9.61
==========================================================================================
Input size (MB): 2.71
Forward/backward pass size (MB): 11981.45
Params size (MB): 1.20
Estimated Total Size (MB): 11985.36
…
