…
        "max_diffusion_step": 3,
        "filter_type": "dual_random_walk",
        "tf_decay_steps": 2000,
        "use_teacher_forcing": true,
        "l1_decay": 0,
        "temp": 0.5,
        "k": 30,
        "dim_fc": 171136,
        "dataset_name": "PEMS08",
        "trainset_ratio": 0.6
    }
}
==========================================================================================
Layer (type:depth-idx)                   Output Shape              Param #
==========================================================================================
GTS                                      [64, 12, 170, 1]          --
├─Conv1d: 1-1                            [170, 8, 10705]           88
├─BatchNorm1d: 1-2                       [170, 8, 10705]           16
├─Conv1d: 1-3                            [170, 16, 10696]          1,296
├─BatchNorm1d: 1-4                       [170, 16, 10696]          32
├─Linear: 1-5                            [170, 100]                17,113,700
├─BatchNorm1d: 1-6                       [170, 100]                200
├─Linear: 1-7                            [28900, 100]              20,100
├─Linear: 1-8                            [28900, 2]                202
├─EncoderModel: 1-9                      [64, 10880]               --
│    └─ModuleList: 2-12                  --                        (recursive)
│    │    └─DCGRUCell: 3-1               [64, 10880]               --
├─EncoderModel: 1-10                     [64, 10880]               (recursive)
│    └─ModuleList: 2-12                  --                        (recursive)
│    │    └─DCGRUCell: 3-2               [64, 10880]               (recursive)
├─EncoderModel: 1-11                     [64, 10880]               (recursive)
│    └─ModuleList: 2-12                  --                        (recursive)
│    │    └─DCGRUCell: 3-3               [64, 10880]               (recursive)
…
