…
        "max_diffusion_step": 3,
        "filter_type": "dual_random_walk",
        "tf_decay_steps": 2000,
        "use_teacher_forcing": true,
        "l1_decay": 0,
        "temp": 0.5,
        "k": 30,
        "dim_fc": 270656,
        "dataset_name": "PEMS07",
        "trainset_ratio": 0.6
    }
}
==========================================================================================
Layer (type:depth-idx)                   Output Shape              Param #
==========================================================================================
GTS                                      [64, 12, 883, 1]          --
├─Conv1d: 1-1                            [883, 8, 16925]           88
├─BatchNorm1d: 1-2                       [883, 8, 16925]           16
├─Conv1d: 1-3                            [883, 16, 16916]          1,296
├─BatchNorm1d: 1-4                       [883, 16, 16916]          32
├─Linear: 1-5                            [883, 100]                27,065,700
├─BatchNorm1d: 1-6                       [883, 100]                200
├─Linear: 1-7                            [779689, 100]             20,100
├─Linear: 1-8                            [779689, 2]               202
├─EncoderModel: 1-9                      [64, 56512]               --
│    └─ModuleList: 2-12                  --                        (recursive)
│    │    └─DCGRUCell: 3-1               [64, 56512]               --
├─EncoderModel: 1-10                     [64, 56512]               (recursive)
│    └─ModuleList: 2-12                  --                        (recursive)
│    │    └─DCGRUCell: 3-2               [64, 56512]               (recursive)
├─EncoderModel: 1-11                     [64, 56512]               (recursive)
│    └─ModuleList: 2-12                  --                        (recursive)
│    │    └─DCGRUCell: 3-3               [64, 56512]               (recursive)
…
