…
        "max_diffusion_step": 3,
        "filter_type": "dual_random_walk",
        "tf_decay_steps": 2000,
        "use_teacher_forcing": true,
        "l1_decay": 0,
        "temp": 0.5,
        "k": 30,
        "dim_fc": 121360,
        "dataset_name": "PEMSD7M",
        "trainset_ratio": 0.6
    }
}
==========================================================================================
Layer (type:depth-idx)                   Output Shape              Param #
==========================================================================================
GTS                                      [64, 12, 228, 1]          --
├─Conv1d: 1-1                            [228, 8, 7594]            88
├─BatchNorm1d: 1-2                       [228, 8, 7594]            16
├─Conv1d: 1-3                            [228, 16, 7585]           1,296
├─BatchNorm1d: 1-4                       [228, 16, 7585]           32
├─Linear: 1-5                            [228, 100]                12,136,100
├─BatchNorm1d: 1-6                       [228, 100]                200
├─Linear: 1-7                            [51984, 100]              20,100
├─Linear: 1-8                            [51984, 2]                202
├─EncoderModel: 1-9                      [64, 14592]               --
│    └─ModuleList: 2-12                  --                        (recursive)
│    │    └─DCGRUCell: 3-1               [64, 14592]               --
├─EncoderModel: 1-10                     [64, 14592]               (recursive)
│    └─ModuleList: 2-12                  --                        (recursive)
│    │    └─DCGRUCell: 3-2               [64, 14592]               (recursive)
├─EncoderModel: 1-11                     [64, 14592]               (recursive)
│    └─ModuleList: 2-12                  --                        (recursive)
│    │    └─DCGRUCell: 3-3               [64, 14592]               (recursive)
…
