…
        "max_diffusion_step": 3,
        "filter_type": "dual_random_walk",
        "tf_decay_steps": 2000,
        "use_teacher_forcing": true,
        "l1_decay": 0,
        "temp": 0.5,
        "k": 30,
        "dim_fc": 251312,
        "dataset_name": "PEMS03",
        "trainset_ratio": 0.6
    }
}
==========================================================================================
Layer (type:depth-idx)                   Output Shape              Param #
==========================================================================================
GTS                                      [64, 12, 358, 1]          --
├─Conv1d: 1-1                            [358, 8, 15716]           88
├─BatchNorm1d: 1-2                       [358, 8, 15716]           16
├─Conv1d: 1-3                            [358, 16, 15707]          1,296
├─BatchNorm1d: 1-4                       [358, 16, 15707]          32
├─Linear: 1-5                            [358, 100]                25,131,300
├─BatchNorm1d: 1-6                       [358, 100]                200
├─Linear: 1-7                            [128164, 100]             20,100
├─Linear: 1-8                            [128164, 2]               202
├─EncoderModel: 1-9                      [64, 22912]               --
│    └─ModuleList: 2-12                  --                        (recursive)
│    │    └─DCGRUCell: 3-1               [64, 22912]               --
├─EncoderModel: 1-10                     [64, 22912]               (recursive)
│    └─ModuleList: 2-12                  --                        (recursive)
│    │    └─DCGRUCell: 3-2               [64, 22912]               (recursive)
├─EncoderModel: 1-11                     [64, 22912]               (recursive)
│    └─ModuleList: 2-12                  --                        (recursive)
│    │    └─DCGRUCell: 3-3               [64, 22912]               (recursive)
…
