…
        "max_diffusion_step": 3,
        "filter_type": "dual_random_walk",
        "tf_decay_steps": 2000,
        "use_teacher_forcing": true,
        "l1_decay": 0,
        "temp": 0.5,
        "k": 10,
        "dim_fc": 383552,
        "dataset_name": "METRLA",
        "trainset_ratio": 0.7
    }
}
==========================================================================================
Layer (type:depth-idx)                   Output Shape              Param #
==========================================================================================
GTS                                      [64, 12, 207, 1]          --
├─Conv1d: 1-1                            [207, 8, 23981]           88
├─BatchNorm1d: 1-2                       [207, 8, 23981]           16
├─Conv1d: 1-3                            [207, 16, 23972]          1,296
├─BatchNorm1d: 1-4                       [207, 16, 23972]          32
├─Linear: 1-5                            [207, 100]                38,355,300
├─BatchNorm1d: 1-6                       [207, 100]                200
├─Linear: 1-7                            [42849, 100]              20,100
├─Linear: 1-8                            [42849, 2]                202
├─EncoderModel: 1-9                      [64, 13248]               --
│    └─ModuleList: 2-12                  --                        (recursive)
│    │    └─DCGRUCell: 3-1               [64, 13248]               --
├─EncoderModel: 1-10                     [64, 13248]               (recursive)
│    └─ModuleList: 2-12                  --                        (recursive)
│    │    └─DCGRUCell: 3-2               [64, 13248]               (recursive)
├─EncoderModel: 1-11                     [64, 13248]               (recursive)
│    └─ModuleList: 2-12                  --                        (recursive)
│    │    └─DCGRUCell: 3-3               [64, 13248]               (recursive)
…
