…
        "max_diffusion_step": 3,
        "filter_type": "dual_random_walk",
        "tf_decay_steps": 2000,
        "use_teacher_forcing": true,
        "l1_decay": 0,
        "temp": 0.5,
        "k": 30,
        "dim_fc": 162832,
        "dataset_name": "PEMS04",
        "trainset_ratio": 0.6
    }
}
==========================================================================================
Layer (type:depth-idx)                   Output Shape              Param #
==========================================================================================
GTS                                      [64, 12, 307, 1]          --
├─Conv1d: 1-1                            [307, 8, 10186]           88
├─BatchNorm1d: 1-2                       [307, 8, 10186]           16
├─Conv1d: 1-3                            [307, 16, 10177]          1,296
├─BatchNorm1d: 1-4                       [307, 16, 10177]          32
├─Linear: 1-5                            [307, 100]                16,283,300
├─BatchNorm1d: 1-6                       [307, 100]                200
├─Linear: 1-7                            [94249, 100]              20,100
├─Linear: 1-8                            [94249, 2]                202
├─EncoderModel: 1-9                      [64, 19648]               --
│    └─ModuleList: 2-12                  --                        (recursive)
│    │    └─DCGRUCell: 3-1               [64, 19648]               --
├─EncoderModel: 1-10                     [64, 19648]               (recursive)
│    └─ModuleList: 2-12                  --                        (recursive)
│    │    └─DCGRUCell: 3-2               [64, 19648]               (recursive)
├─EncoderModel: 1-11                     [64, 19648]               (recursive)
│    └─ModuleList: 2-12                  --                        (recursive)
│    │    └─DCGRUCell: 3-3               [64, 19648]               (recursive)
…
