…
        "max_diffusion_step": 3,
        "filter_type": "dual_random_walk",
        "tf_decay_steps": 2000,
        "use_teacher_forcing": true,
        "l1_decay": 0,
        "temp": 0.5,
        "k": 30,
        "dim_fc": 121360,
        "dataset_name": "PEMSD7L",
        "trainset_ratio": 0.6
    }
}
==========================================================================================
Layer (type:depth-idx)                   Output Shape              Param #
==========================================================================================
GTS                                      [64, 12, 1026, 1]         --
├─Conv1d: 1-1                            [1026, 8, 7594]           88
├─BatchNorm1d: 1-2                       [1026, 8, 7594]           16
├─Conv1d: 1-3                            [1026, 16, 7585]          1,296
├─BatchNorm1d: 1-4                       [1026, 16, 7585]          32
├─Linear: 1-5                            [1026, 100]               12,136,100
├─BatchNorm1d: 1-6                       [1026, 100]               200
├─Linear: 1-7                            [1052676, 100]            20,100
├─Linear: 1-8                            [1052676, 2]              202
├─EncoderModel: 1-9                      [64, 65664]               --
│    └─ModuleList: 2-12                  --                        (recursive)
│    │    └─DCGRUCell: 3-1               [64, 65664]               --
├─EncoderModel: 1-10                     [64, 65664]               (recursive)
│    └─ModuleList: 2-12                  --                        (recursive)
│    │    └─DCGRUCell: 3-2               [64, 65664]               (recursive)
├─EncoderModel: 1-11                     [64, 65664]               (recursive)
│    └─ModuleList: 2-12                  --                        (recursive)
│    │    └─DCGRUCell: 3-3               [64, 65664]               (recursive)
…
