…
        "max_diffusion_step": 3,
        "filter_type": "dual_random_walk",
        "tf_decay_steps": 2000,
        "use_teacher_forcing": true,
        "l1_decay": 0,
        "temp": 0.5,
        "k": 30,
        "dim_fc": 583408,
        "dataset_name": "PEMSBAY",
        "trainset_ratio": 0.7
    }
}
==========================================================================================
Layer (type:depth-idx)                   Output Shape              Param #
==========================================================================================
GTS                                      [64, 12, 325, 1]          --
├─Conv1d: 1-1                            [325, 8, 36472]           88
├─BatchNorm1d: 1-2                       [325, 8, 36472]           16
├─Conv1d: 1-3                            [325, 16, 36463]          1,296
├─BatchNorm1d: 1-4                       [325, 16, 36463]          32
├─Linear: 1-5                            [325, 100]                58,340,900
├─BatchNorm1d: 1-6                       [325, 100]                200
├─Linear: 1-7                            [105625, 100]             20,100
├─Linear: 1-8                            [105625, 2]               202
├─EncoderModel: 1-9                      [64, 20800]               --
│    └─ModuleList: 2-12                  --                        (recursive)
│    │    └─DCGRUCell: 3-1               [64, 20800]               --
├─EncoderModel: 1-10                     [64, 20800]               (recursive)
│    └─ModuleList: 2-12                  --                        (recursive)
│    │    └─DCGRUCell: 3-2               [64, 20800]               (recursive)
├─EncoderModel: 1-11                     [64, 20800]               (recursive)
│    └─ModuleList: 2-12                  --                        (recursive)
│    │    └─DCGRUCell: 3-3               [64, 20800]               (recursive)
…
