…
    "pass_device": true,
    "model_args": {
        "num_nodes": 170,
        "input_dim": 1,
        "output_dim": 1,
        "lag": 12,
        "horizon": 12,
        "device": "cuda:0",
        "channels": 16,
        "memory_size": 16,
        "dynamic": true
    }
}
====================================================================================================
Layer (type:depth-idx)                             Output Shape              Param #
====================================================================================================
STWA                                               [16, 12, 170, 1]          --
├─Sequential: 1-1                                  [16, 170, 16]             --
│    └─Linear: 2-1                                 [16, 170, 32]             416
│    └─Tanh: 2-2                                   [16, 170, 32]             --
│    └─Linear: 2-3                                 [16, 170, 32]             1,056
│    └─Tanh: 2-4                                   [16, 170, 32]             --
│    └─Linear: 2-5                                 [16, 170, 16]             528
├─Sequential: 1-2                                  [16, 170, 16]             --
│    └─Linear: 2-6                                 [16, 170, 32]             416
│    └─Tanh: 2-7                                   [16, 170, 32]             --
│    └─Linear: 2-8                                 [16, 170, 32]             1,056
│    └─Tanh: 2-9                                   [16, 170, 32]             --
│    └─Linear: 2-10                                [16, 170, 16]             528
├─Linear: 1-3                                      [16, 12, 170, 16]         32
├─ModuleList: 1-8                                  --                        (recursive)
│    └─Layer: 2-11                                 [16, 12, 170, 16]         70,720
│    │    └─ModuleList: 3-1                        --                        6,100
│    │    └─ModuleList: 3-2                        --                        6,100
│    │    └─TemporalAttention: 3-3                 [16, 2, 170, 16]          544
│    │    └─SpatialAttention: 3-4                  [16, 2, 170, 16]          544
│    │    └─Sequential: 3-5                        [16, 2, 170, 16]          544
│    │    └─TemporalAttention: 3-6                 [16, 2, 170, 16]          (recursive)
│    │    └─SpatialAttention: 3-7                  [16, 2, 170, 16]          (recursive)
│    │    └─Sequential: 3-8                        [16, 2, 170, 16]          (recursive)
│    │    └─TemporalAttention: 3-9                 [16, 2, 170, 16]          (recursive)
│    │    └─SpatialAttention: 3-10                 [16, 2, 170, 16]          (recursive)
…
│    │    └─TemporalAttention: 3-33                [16, 2, 170, 16]          (recursive)
│    │    └─SpatialAttention: 3-34                 [16, 2, 170, 16]          (recursive)
│    │    └─Sequential: 3-35                       [16, 2, 170, 16]          (recursive)
│    │    └─TemporalAttention: 3-36                [16, 2, 170, 16]          (recursive)
│    │    └─SpatialAttention: 3-37                 [16, 2, 170, 16]          (recursive)
│    │    └─Sequential: 3-38                       [16, 2, 170, 16]          (recursive)
├─ModuleList: 1-9                                  --                        (recursive)
│    └─Linear: 2-12                                [16, 170, 256]            49,408
├─ModuleList: 1-8                                  --                        (recursive)
│    └─Layer: 2-13                                 [16, 3, 170, 16]          21,760
│    │    └─ModuleList: 3-39                       --                        6,100
│    │    └─ModuleList: 3-40                       --                        6,100
│    │    └─TemporalAttention: 3-41                [16, 2, 170, 16]          544
│    │    └─SpatialAttention: 3-42                 [16, 2, 170, 16]          544
│    │    └─Sequential: 3-43                       [16, 2, 170, 16]          544
│    │    └─TemporalAttention: 3-44                [16, 2, 170, 16]          (recursive)
│    │    └─SpatialAttention: 3-45                 [16, 2, 170, 16]          (recursive)
│    │    └─Sequential: 3-46                       [16, 2, 170, 16]          (recursive)
│    │    └─TemporalAttention: 3-47                [16, 2, 170, 16]          (recursive)
│    │    └─SpatialAttention: 3-48                 [16, 2, 170, 16]          (recursive)
│    │    └─Sequential: 3-49                       [16, 2, 170, 16]          (recursive)
├─ModuleList: 1-9                                  --                        (recursive)
│    └─Linear: 2-14                                [16, 170, 256]            12,544
├─ModuleList: 1-8                                  --                        (recursive)
│    └─Layer: 2-15                                 [16, 1, 170, 16]          10,880
│    │    └─ModuleList: 3-50                       --                        6,100
│    │    └─ModuleList: 3-51                       --                        6,100
│    │    └─TemporalAttention: 3-52                [16, 2, 170, 16]          544
│    │    └─SpatialAttention: 3-53                 [16, 2, 170, 16]          544
│    │    └─Sequential: 3-54                       [16, 2, 170, 16]          544
├─ModuleList: 1-9                                  --                        (recursive)
│    └─Linear: 2-16                                [16, 170, 256]            4,352
├─Sequential: 1-10                                 [16, 170, 12]             --
│    └─Linear: 2-17                                [16, 170, 512]            131,584
│    └─ReLU: 2-18                                  [16, 170, 512]            --
│    └─Linear: 2-19                                [16, 170, 12]             6,156
====================================================================================================
Total params: 352,932
Trainable params: 352,932
Non-trainable params: 0
Total mult-adds (M): 4.33
====================================================================================================
Input size (MB): 0.13
Forward/backward pass size (MB): 138.65
Params size (MB): 1.00
Estimated Total Size (MB): 139.78
…
