…
    "pass_device": true,
    "model_args": {
        "num_nodes": 358,
        "input_dim": 1,
        "output_dim": 1,
        "lag": 12,
        "horizon": 12,
        "device": "cuda:0",
        "channels": 16,
        "memory_size": 16,
        "dynamic": true
    }
}
====================================================================================================
Layer (type:depth-idx)                             Output Shape              Param #
====================================================================================================
STWA                                               [64, 12, 358, 1]          --
├─Sequential: 1-1                                  [64, 358, 16]             --
│    └─Linear: 2-1                                 [64, 358, 32]             416
│    └─Tanh: 2-2                                   [64, 358, 32]             --
│    └─Linear: 2-3                                 [64, 358, 32]             1,056
│    └─Tanh: 2-4                                   [64, 358, 32]             --
│    └─Linear: 2-5                                 [64, 358, 16]             528
├─Sequential: 1-2                                  [64, 358, 16]             --
│    └─Linear: 2-6                                 [64, 358, 32]             416
│    └─Tanh: 2-7                                   [64, 358, 32]             --
│    └─Linear: 2-8                                 [64, 358, 32]             1,056
│    └─Tanh: 2-9                                   [64, 358, 32]             --
│    └─Linear: 2-10                                [64, 358, 16]             528
├─Linear: 1-3                                      [64, 12, 358, 16]         32
├─ModuleList: 1-8                                  --                        (recursive)
│    └─Layer: 2-11                                 [64, 12, 358, 16]         148,928
│    │    └─ModuleList: 3-1                        --                        6,100
│    │    └─ModuleList: 3-2                        --                        6,100
│    │    └─TemporalAttention: 3-3                 [64, 2, 358, 16]          544
│    │    └─SpatialAttention: 3-4                  [64, 2, 358, 16]          544
│    │    └─Sequential: 3-5                        [64, 2, 358, 16]          544
│    │    └─TemporalAttention: 3-6                 [64, 2, 358, 16]          (recursive)
│    │    └─SpatialAttention: 3-7                  [64, 2, 358, 16]          (recursive)
│    │    └─Sequential: 3-8                        [64, 2, 358, 16]          (recursive)
│    │    └─TemporalAttention: 3-9                 [64, 2, 358, 16]          (recursive)
│    │    └─SpatialAttention: 3-10                 [64, 2, 358, 16]          (recursive)
…
│    │    └─TemporalAttention: 3-33                [64, 2, 358, 16]          (recursive)
│    │    └─SpatialAttention: 3-34                 [64, 2, 358, 16]          (recursive)
│    │    └─Sequential: 3-35                       [64, 2, 358, 16]          (recursive)
│    │    └─TemporalAttention: 3-36                [64, 2, 358, 16]          (recursive)
│    │    └─SpatialAttention: 3-37                 [64, 2, 358, 16]          (recursive)
│    │    └─Sequential: 3-38                       [64, 2, 358, 16]          (recursive)
├─ModuleList: 1-9                                  --                        (recursive)
│    └─Linear: 2-12                                [64, 358, 256]            49,408
├─ModuleList: 1-8                                  --                        (recursive)
│    └─Layer: 2-13                                 [64, 3, 358, 16]          45,824
│    │    └─ModuleList: 3-39                       --                        6,100
│    │    └─ModuleList: 3-40                       --                        6,100
│    │    └─TemporalAttention: 3-41                [64, 2, 358, 16]          544
│    │    └─SpatialAttention: 3-42                 [64, 2, 358, 16]          544
│    │    └─Sequential: 3-43                       [64, 2, 358, 16]          544
│    │    └─TemporalAttention: 3-44                [64, 2, 358, 16]          (recursive)
│    │    └─SpatialAttention: 3-45                 [64, 2, 358, 16]          (recursive)
│    │    └─Sequential: 3-46                       [64, 2, 358, 16]          (recursive)
│    │    └─TemporalAttention: 3-47                [64, 2, 358, 16]          (recursive)
│    │    └─SpatialAttention: 3-48                 [64, 2, 358, 16]          (recursive)
│    │    └─Sequential: 3-49                       [64, 2, 358, 16]          (recursive)
├─ModuleList: 1-9                                  --                        (recursive)
│    └─Linear: 2-14                                [64, 358, 256]            12,544
├─ModuleList: 1-8                                  --                        (recursive)
│    └─Layer: 2-15                                 [64, 1, 358, 16]          22,912
│    │    └─ModuleList: 3-50                       --                        6,100
│    │    └─ModuleList: 3-51                       --                        6,100
│    │    └─TemporalAttention: 3-52                [64, 2, 358, 16]          544
│    │    └─SpatialAttention: 3-53                 [64, 2, 358, 16]          544
│    │    └─Sequential: 3-54                       [64, 2, 358, 16]          544
├─ModuleList: 1-9                                  --                        (recursive)
│    └─Linear: 2-16                                [64, 358, 256]            4,352
├─Sequential: 1-10                                 [64, 358, 12]             --
│    └─Linear: 2-17                                [64, 358, 512]            131,584
│    └─ReLU: 2-18                                  [64, 358, 512]            --
│    └─Linear: 2-19                                [64, 358, 12]             6,156
====================================================================================================
Total params: 467,236
Trainable params: 467,236
Non-trainable params: 0
Total mult-adds (M): 17.33
====================================================================================================
Input size (MB): 1.10
Forward/backward pass size (MB): 1167.96
Params size (MB): 1.00
Estimated Total Size (MB): 1170.06
…
