…
        50
    ],
    "clip_grad": 0,
    "batch_size": 64,
    "max_epochs": 200,
    "use_cl": false,
    "model_args": {
        "units": 358,
        "stack_cnt": 2,
        "time_step": 12,
        "horizon": 12,
        "multi_layer": 5,
        "dropout_rate": 0.5,
        "leaky_rate": 0.2
    }
}
==========================================================================================
Layer (type:depth-idx)                   Output Shape              Param #
==========================================================================================
StemGNN                                  [64, 12, 358, 1]          716
├─GRU: 1-1                               [358, 64, 358]            399,528
├─LeakyReLU: 1-2                         [64, 358, 358]            --
├─Dropout: 1-3                           [64, 358, 358]            --
├─ModuleList: 1-4                        --                        --
│    └─StockBlockLayer: 2-1              [64, 358, 12]             14,400
│    │    └─ModuleList: 3-1              --                        509,760
│    │    └─Linear: 3-2                  [64, 1, 358, 60]          3,660
│    │    └─Linear: 3-3                  [64, 358, 12]             732
│    │    └─Linear: 3-4                  [64, 1, 1, 358, 12]       156
│    │    └─Linear: 3-5                  [64, 1, 358, 12]          732
│    └─StockBlockLayer: 2-2              [64, 358, 12]             14,556
│    │    └─ModuleList: 3-6              --                        509,760
│    │    └─Linear: 3-7                  [64, 1, 358, 60]          3,660
│    │    └─Linear: 3-8                  [64, 358, 12]             732
├─Sequential: 1-5                        [64, 358, 12]             --
│    └─Linear: 2-3                       [64, 358, 12]             156
│    └─LeakyReLU: 2-4                    [64, 358, 12]             --
│    └─Linear: 2-5                       [64, 358, 12]             156
==========================================================================================
Total params: 1,458,704
Trainable params: 1,458,704
Non-trainable params: 0
Total mult-adds (G): 9.22
==========================================================================================
Input size (MB): 1.10
Forward/backward pass size (MB): 1156.60
Params size (MB): 5.72
Estimated Total Size (MB): 1163.41
…
