…
    "milestones": [
        50
    ],
    "clip_grad": 0,
    "batch_size": 64,
    "max_epochs": 200,
    "model_args": {
        "units": 1026,
        "stack_cnt": 2,
        "time_step": 12,
        "horizon": 12,
        "multi_layer": 5,
        "dropout_rate": 0.5,
        "leaky_rate": 0.2
    }
}
==========================================================================================
Layer (type:depth-idx)                   Output Shape              Param #
==========================================================================================
StemGNN                                  [64, 12, 1026, 1]         2,052
├─GRU: 1-1                               [1026, 64, 1026]          3,201,120
├─LeakyReLU: 1-2                         [64, 1026, 1026]          --
├─Dropout: 1-3                           [64, 1026, 1026]          --
├─ModuleList: 1-4                        --                        --
│    └─StockBlockLayer: 2-1              [64, 1026, 12]            14,400
│    │    └─ModuleList: 3-1              --                        509,760
│    │    └─Linear: 3-2                  [64, 1, 1026, 60]         3,660
│    │    └─Linear: 3-3                  [64, 1026, 12]            732
│    │    └─Linear: 3-4                  [64, 1, 1, 1026, 12]      156
│    │    └─Linear: 3-5                  [64, 1, 1026, 12]         732
│    └─StockBlockLayer: 2-2              [64, 1026, 12]            14,556
│    │    └─ModuleList: 3-6              --                        509,760
│    │    └─Linear: 3-7                  [64, 1, 1026, 60]         3,660
│    │    └─Linear: 3-8                  [64, 1026, 12]            732
├─Sequential: 1-5                        [64, 1026, 12]            --
│    └─Linear: 2-3                       [64, 1026, 12]            156
│    └─LeakyReLU: 2-4                    [64, 1026, 12]            --
│    └─Linear: 2-5                       [64, 1026, 12]            156
==========================================================================================
Total params: 4,261,632
Trainable params: 4,261,632
Non-trainable params: 0
Total mult-adds (G): 210.26
==========================================================================================
Input size (MB): 3.15
Forward/backward pass size (MB): 3665.63
Params size (MB): 16.92
Estimated Total Size (MB): 3685.70
…
