…
        "num_nodes": 358,
        "in_dim": 2,
        "out_dim": 12,
        "adj_path": "../data/PEMS03/adj_PEMS03_distance.pkl",
        "adj_type": "doubletransition",
        "device": "cuda:0",
        "dropout": 0.3,
        "gcn_bool": true,
        "addaptadj": true,
        "aptinit": null
    }
}
==========================================================================================
Layer (type:depth-idx)                   Output Shape              Param #
==========================================================================================
GWNET                                    [64, 12, 358, 1]          15,608
├─Conv2d: 1-1                            [64, 32, 358, 13]         96
├─ModuleList: 1-37                       --                        (recursive)
│    └─Conv2d: 2-1                       [64, 32, 358, 12]         2,080
├─ModuleList: 1-38                       --                        (recursive)
│    └─Conv2d: 2-2                       [64, 32, 358, 12]         2,080
├─ModuleList: 1-39                       --                        (recursive)
│    └─Conv2d: 2-3                       [64, 256, 358, 12]        8,448
├─ModuleList: 1-40                       --                        (recursive)
│    └─gcn: 2-4                          [64, 32, 358, 12]         --
│    │    └─nconv: 3-1                   [64, 32, 358, 12]         --
│    │    └─nconv: 3-2                   [64, 32, 358, 12]         --
│    │    └─nconv: 3-3                   [64, 32, 358, 12]         --
│    │    └─nconv: 3-4                   [64, 32, 358, 12]         --
│    │    └─nconv: 3-5                   [64, 32, 358, 12]         --
│    │    └─nconv: 3-6                   [64, 32, 358, 12]         --
│    │    └─linear: 3-7                  [64, 32, 358, 12]         7,200
├─ModuleList: 1-41                       --                        (recursive)
│    └─BatchNorm2d: 2-5                  [64, 32, 358, 12]         64
├─ModuleList: 1-37                       --                        (recursive)
│    └─Conv2d: 2-6                       [64, 32, 358, 10]         2,080
├─ModuleList: 1-38                       --                        (recursive)
│    └─Conv2d: 2-7                       [64, 32, 358, 10]         2,080
├─ModuleList: 1-39                       --                        (recursive)
│    └─Conv2d: 2-8                       [64, 256, 358, 10]        8,448
├─ModuleList: 1-40                       --                        (recursive)
│    └─gcn: 2-9                          [64, 32, 358, 10]         --
│    │    └─nconv: 3-8                   [64, 32, 358, 10]         --
│    │    └─nconv: 3-9                   [64, 32, 358, 10]         --
│    │    └─nconv: 3-10                  [64, 32, 358, 10]         --
│    │    └─nconv: 3-11                  [64, 32, 358, 10]         --
│    │    └─nconv: 3-12                  [64, 32, 358, 10]         --
│    │    └─nconv: 3-13                  [64, 32, 358, 10]         --
│    │    └─linear: 3-14                 [64, 32, 358, 10]         7,200
├─ModuleList: 1-41                       --                        (recursive)
│    └─BatchNorm2d: 2-10                 [64, 32, 358, 10]         64
├─ModuleList: 1-37                       --                        (recursive)
│    └─Conv2d: 2-11                      [64, 32, 358, 9]          2,080
├─ModuleList: 1-38                       --                        (recursive)
│    └─Conv2d: 2-12                      [64, 32, 358, 9]          2,080
├─ModuleList: 1-39                       --                        (recursive)
│    └─Conv2d: 2-13                      [64, 256, 358, 9]         8,448
├─ModuleList: 1-40                       --                        (recursive)
│    └─gcn: 2-14                         [64, 32, 358, 9]          --
│    │    └─nconv: 3-15                  [64, 32, 358, 9]          --
│    │    └─nconv: 3-16                  [64, 32, 358, 9]          --
│    │    └─nconv: 3-17                  [64, 32, 358, 9]          --
│    │    └─nconv: 3-18                  [64, 32, 358, 9]          --
│    │    └─nconv: 3-19                  [64, 32, 358, 9]          --
│    │    └─nconv: 3-20                  [64, 32, 358, 9]          --
│    │    └─linear: 3-21                 [64, 32, 358, 9]          7,200
├─ModuleList: 1-41                       --                        (recursive)
│    └─BatchNorm2d: 2-15                 [64, 32, 358, 9]          64
├─ModuleList: 1-37                       --                        (recursive)
│    └─Conv2d: 2-16                      [64, 32, 358, 7]          2,080
├─ModuleList: 1-38                       --                        (recursive)
│    └─Conv2d: 2-17                      [64, 32, 358, 7]          2,080
├─ModuleList: 1-39                       --                        (recursive)
│    └─Conv2d: 2-18                      [64, 256, 358, 7]         8,448
├─ModuleList: 1-40                       --                        (recursive)
│    └─gcn: 2-19                         [64, 32, 358, 7]          --
│    │    └─nconv: 3-22                  [64, 32, 358, 7]          --
│    │    └─nconv: 3-23                  [64, 32, 358, 7]          --
│    │    └─nconv: 3-24                  [64, 32, 358, 7]          --
│    │    └─nconv: 3-25                  [64, 32, 358, 7]          --
│    │    └─nconv: 3-26                  [64, 32, 358, 7]          --
│    │    └─nconv: 3-27                  [64, 32, 358, 7]          --
│    │    └─linear: 3-28                 [64, 32, 358, 7]          7,200
├─ModuleList: 1-41                       --                        (recursive)
│    └─BatchNorm2d: 2-20                 [64, 32, 358, 7]          64
├─ModuleList: 1-37                       --                        (recursive)
│    └─Conv2d: 2-21                      [64, 32, 358, 6]          2,080
├─ModuleList: 1-38                       --                        (recursive)
│    └─Conv2d: 2-22                      [64, 32, 358, 6]          2,080
├─ModuleList: 1-39                       --                        (recursive)
│    └─Conv2d: 2-23                      [64, 256, 358, 6]         8,448
├─ModuleList: 1-40                       --                        (recursive)
│    └─gcn: 2-24                         [64, 32, 358, 6]          --
│    │    └─nconv: 3-29                  [64, 32, 358, 6]          --
│    │    └─nconv: 3-30                  [64, 32, 358, 6]          --
│    │    └─nconv: 3-31                  [64, 32, 358, 6]          --
│    │    └─nconv: 3-32                  [64, 32, 358, 6]          --
│    │    └─nconv: 3-33                  [64, 32, 358, 6]          --
│    │    └─nconv: 3-34                  [64, 32, 358, 6]          --
│    │    └─linear: 3-35                 [64, 32, 358, 6]          7,200
├─ModuleList: 1-41                       --                        (recursive)
│    └─BatchNorm2d: 2-25                 [64, 32, 358, 6]          64
├─ModuleList: 1-37                       --                        (recursive)
│    └─Conv2d: 2-26                      [64, 32, 358, 4]          2,080
├─ModuleList: 1-38                       --                        (recursive)
│    └─Conv2d: 2-27                      [64, 32, 358, 4]          2,080
├─ModuleList: 1-39                       --                        (recursive)
│    └─Conv2d: 2-28                      [64, 256, 358, 4]         8,448
├─ModuleList: 1-40                       --                        (recursive)
│    └─gcn: 2-29                         [64, 32, 358, 4]          --
│    │    └─nconv: 3-36                  [64, 32, 358, 4]          --
│    │    └─nconv: 3-37                  [64, 32, 358, 4]          --
│    │    └─nconv: 3-38                  [64, 32, 358, 4]          --
│    │    └─nconv: 3-39                  [64, 32, 358, 4]          --
│    │    └─nconv: 3-40                  [64, 32, 358, 4]          --
│    │    └─nconv: 3-41                  [64, 32, 358, 4]          --
│    │    └─linear: 3-42                 [64, 32, 358, 4]          7,200
├─ModuleList: 1-41                       --                        (recursive)
│    └─BatchNorm2d: 2-30                 [64, 32, 358, 4]          64
├─ModuleList: 1-37                       --                        (recursive)
│    └─Conv2d: 2-31                      [64, 32, 358, 3]          2,080
├─ModuleList: 1-38                       --                        (recursive)
│    └─Conv2d: 2-32                      [64, 32, 358, 3]          2,080
├─ModuleList: 1-39                       --                        (recursive)
│    └─Conv2d: 2-33                      [64, 256, 358, 3]         8,448
├─ModuleList: 1-40                       --                        (recursive)
│    └─gcn: 2-34                         [64, 32, 358, 3]          --
│    │    └─nconv: 3-43                  [64, 32, 358, 3]          --
│    │    └─nconv: 3-44                  [64, 32, 358, 3]          --
│    │    └─nconv: 3-45                  [64, 32, 358, 3]          --
│    │    └─nconv: 3-46                  [64, 32, 358, 3]          --
│    │    └─nconv: 3-47                  [64, 32, 358, 3]          --
│    │    └─nconv: 3-48                  [64, 32, 358, 3]          --
│    │    └─linear: 3-49                 [64, 32, 358, 3]          7,200
├─ModuleList: 1-41                       --                        (recursive)
│    └─BatchNorm2d: 2-35                 [64, 32, 358, 3]          64
├─ModuleList: 1-37                       --                        (recursive)
│    └─Conv2d: 2-36                      [64, 32, 358, 1]          2,080
├─ModuleList: 1-38                       --                        (recursive)
│    └─Conv2d: 2-37                      [64, 32, 358, 1]          2,080
├─ModuleList: 1-39                       --                        (recursive)
│    └─Conv2d: 2-38                      [64, 256, 358, 1]         8,448
├─ModuleList: 1-40                       --                        (recursive)
│    └─gcn: 2-39                         [64, 32, 358, 1]          --
│    │    └─nconv: 3-50                  [64, 32, 358, 1]          --
│    │    └─nconv: 3-51                  [64, 32, 358, 1]          --
│    │    └─nconv: 3-52                  [64, 32, 358, 1]          --
│    │    └─nconv: 3-53                  [64, 32, 358, 1]          --
│    │    └─nconv: 3-54                  [64, 32, 358, 1]          --
│    │    └─nconv: 3-55                  [64, 32, 358, 1]          --
│    │    └─linear: 3-56                 [64, 32, 358, 1]          7,200
├─ModuleList: 1-41                       --                        (recursive)
│    └─BatchNorm2d: 2-40                 [64, 32, 358, 1]          64
├─Conv2d: 1-42                           [64, 512, 358, 1]         131,584
├─Conv2d: 1-43                           [64, 12, 358, 1]          6,156
==========================================================================================
Total params: 312,420
Trainable params: 312,420
Non-trainable params: 0
Total mult-adds (G): 26.78
==========================================================================================
Input size (MB): 2.20
Forward/backward pass size (MB): 3832.35
Params size (MB): 1.19
Estimated Total Size (MB): 3835.74
…
