…
==========================================================================================
GWNET                                    --                        --
├─ModuleList: 1-1                        --                        --
├─ModuleList: 1-2                        --                        --
├─ModuleList: 1-3                        --                        --
├─ModuleList: 1-4                        --                        --
├─ModuleList: 1-5                        --                        --
├─ModuleList: 1-6                        --                        --
├─Conv2d: 1-7                            [64, 32, 358, 13]         64
├─ModuleList: 1-1                        --                        --
│    └─Conv2d: 2-1                       [64, 32, 358, 12]         2,080
├─ModuleList: 1-2                        --                        --
│    └─Conv2d: 2-2                       [64, 32, 358, 12]         2,080
├─ModuleList: 1-4                        --                        --
│    └─Conv2d: 2-3                       [64, 256, 358, 12]        8,448
├─ModuleList: 1-6                        --                        --
│    └─gcn: 2-4                          [64, 32, 358, 12]         --
│    │    └─nconv: 3-1                   [64, 32, 358, 12]         --
│    │    └─nconv: 3-2                   [64, 32, 358, 12]         --
│    │    └─linear: 3-3                  [64, 32, 358, 12]         3,104
├─ModuleList: 1-5                        --                        --
│    └─BatchNorm2d: 2-5                  [64, 32, 358, 12]         64
├─ModuleList: 1-1                        --                        --
│    └─Conv2d: 2-6                       [64, 32, 358, 10]         2,080
├─ModuleList: 1-2                        --                        --
│    └─Conv2d: 2-7                       [64, 32, 358, 10]         2,080
├─ModuleList: 1-4                        --                        --
│    └─Conv2d: 2-8                       [64, 256, 358, 10]        8,448
├─ModuleList: 1-6                        --                        --
│    └─gcn: 2-9                          [64, 32, 358, 10]         --
│    │    └─nconv: 3-4                   [64, 32, 358, 10]         --
│    │    └─nconv: 3-5                   [64, 32, 358, 10]         --
│    │    └─linear: 3-6                  [64, 32, 358, 10]         3,104
├─ModuleList: 1-5                        --                        --
│    └─BatchNorm2d: 2-10                 [64, 32, 358, 10]         64
├─ModuleList: 1-1                        --                        --
│    └─Conv2d: 2-11                      [64, 32, 358, 9]          2,080
├─ModuleList: 1-2                        --                        --
│    └─Conv2d: 2-12                      [64, 32, 358, 9]          2,080
├─ModuleList: 1-4                        --                        --
│    └─Conv2d: 2-13                      [64, 256, 358, 9]         8,448
├─ModuleList: 1-6                        --                        --
│    └─gcn: 2-14                         [64, 32, 358, 9]          --
│    │    └─nconv: 3-7                   [64, 32, 358, 9]          --
│    │    └─nconv: 3-8                   [64, 32, 358, 9]          --
│    │    └─linear: 3-9                  [64, 32, 358, 9]          3,104
├─ModuleList: 1-5                        --                        --
│    └─BatchNorm2d: 2-15                 [64, 32, 358, 9]          64
├─ModuleList: 1-1                        --                        --
│    └─Conv2d: 2-16                      [64, 32, 358, 7]          2,080
├─ModuleList: 1-2                        --                        --
│    └─Conv2d: 2-17                      [64, 32, 358, 7]          2,080
├─ModuleList: 1-4                        --                        --
│    └─Conv2d: 2-18                      [64, 256, 358, 7]         8,448
├─ModuleList: 1-6                        --                        --
│    └─gcn: 2-19                         [64, 32, 358, 7]          --
│    │    └─nconv: 3-10                  [64, 32, 358, 7]          --
│    │    └─nconv: 3-11                  [64, 32, 358, 7]          --
│    │    └─linear: 3-12                 [64, 32, 358, 7]          3,104
├─ModuleList: 1-5                        --                        --
│    └─BatchNorm2d: 2-20                 [64, 32, 358, 7]          64
├─ModuleList: 1-1                        --                        --
│    └─Conv2d: 2-21                      [64, 32, 358, 6]          2,080
├─ModuleList: 1-2                        --                        --
│    └─Conv2d: 2-22                      [64, 32, 358, 6]          2,080
├─ModuleList: 1-4                        --                        --
│    └─Conv2d: 2-23                      [64, 256, 358, 6]         8,448
├─ModuleList: 1-6                        --                        --
│    └─gcn: 2-24                         [64, 32, 358, 6]          --
│    │    └─nconv: 3-13                  [64, 32, 358, 6]          --
│    │    └─nconv: 3-14                  [64, 32, 358, 6]          --
│    │    └─linear: 3-15                 [64, 32, 358, 6]          3,104
├─ModuleList: 1-5                        --                        --
│    └─BatchNorm2d: 2-25                 [64, 32, 358, 6]          64
├─ModuleList: 1-1                        --                        --
│    └─Conv2d: 2-26                      [64, 32, 358, 4]          2,080
├─ModuleList: 1-2                        --                        --
│    └─Conv2d: 2-27                      [64, 32, 358, 4]          2,080
├─ModuleList: 1-4                        --                        --
│    └─Conv2d: 2-28                      [64, 256, 358, 4]         8,448
├─ModuleList: 1-6                        --                        --
│    └─gcn: 2-29                         [64, 32, 358, 4]          --
│    │    └─nconv: 3-16                  [64, 32, 358, 4]          --
│    │    └─nconv: 3-17                  [64, 32, 358, 4]          --
│    │    └─linear: 3-18                 [64, 32, 358, 4]          3,104
├─ModuleList: 1-5                        --                        --
│    └─BatchNorm2d: 2-30                 [64, 32, 358, 4]          64
├─ModuleList: 1-1                        --                        --
│    └─Conv2d: 2-31                      [64, 32, 358, 3]          2,080
├─ModuleList: 1-2                        --                        --
│    └─Conv2d: 2-32                      [64, 32, 358, 3]          2,080
├─ModuleList: 1-4                        --                        --
│    └─Conv2d: 2-33                      [64, 256, 358, 3]         8,448
├─ModuleList: 1-6                        --                        --
│    └─gcn: 2-34                         [64, 32, 358, 3]          --
│    │    └─nconv: 3-19                  [64, 32, 358, 3]          --
│    │    └─nconv: 3-20                  [64, 32, 358, 3]          --
│    │    └─linear: 3-21                 [64, 32, 358, 3]          3,104
├─ModuleList: 1-5                        --                        --
│    └─BatchNorm2d: 2-35                 [64, 32, 358, 3]          64
├─ModuleList: 1-1                        --                        --
│    └─Conv2d: 2-36                      [64, 32, 358, 1]          2,080
├─ModuleList: 1-2                        --                        --
│    └─Conv2d: 2-37                      [64, 32, 358, 1]          2,080
├─ModuleList: 1-4                        --                        --
│    └─Conv2d: 2-38                      [64, 256, 358, 1]         8,448
├─ModuleList: 1-6                        --                        --
│    └─gcn: 2-39                         [64, 32, 358, 1]          --
│    │    └─nconv: 3-22                  [64, 32, 358, 1]          --
│    │    └─nconv: 3-23                  [64, 32, 358, 1]          --
│    │    └─linear: 3-24                 [64, 32, 358, 1]          3,104
├─ModuleList: 1-5                        --                        --
│    └─BatchNorm2d: 2-40                 [64, 32, 358, 1]          64
├─Conv2d: 1-8                            [64, 512, 358, 1]         131,584
├─Conv2d: 1-9                            [64, 12, 358, 1]          6,156
==========================================================================================
Total params: 264,012
Trainable params: 264,012
Non-trainable params: 0
Total mult-adds (G): 21.89
==========================================================================================
Input size (MB): 1.10
Forward/backward pass size (MB): 3832.35
Params size (MB): 1.06
Estimated Total Size (MB): 3834.51
…
