…
    "lr_decay_rate": 0.1,
    "batch_size": 64,
    "max_epochs": 200,
    "model_args": {
        "num_nodes": 1026,
        "tnorm_bool": true,
        "snorm_bool": true,
        "in_dim": 2,
        "out_dim": 12,
        "channels": 32,
        "kernel_size": 2,
        "blocks": 4,
        "layers": 2
    }
}
==========================================================================================
Layer (type:depth-idx)                   Output Shape              Param #
==========================================================================================
STNorm                                   [64, 12, 1026, 1]         --
├─Conv2d: 1-1                            [64, 32, 1026, 13]        96
├─ModuleList: 1-44                       --                        (recursive)
│    └─TNorm: 2-1                        [64, 32, 1026, 13]        65,664
├─ModuleList: 1-45                       --                        (recursive)
│    └─SNorm: 2-2                        [64, 32, 1026, 13]        64
├─ModuleList: 1-46                       --                        (recursive)
│    └─Conv2d: 2-3                       [64, 32, 1026, 12]        6,176
├─ModuleList: 1-47                       --                        (recursive)
│    └─Conv2d: 2-4                       [64, 32, 1026, 12]        6,176
├─ModuleList: 1-48                       --                        (recursive)
│    └─Conv2d: 2-5                       [64, 32, 1026, 12]        1,056
├─ModuleList: 1-49                       --                        (recursive)
│    └─Conv2d: 2-6                       [64, 32, 1026, 12]        1,056
├─ModuleList: 1-44                       --                        (recursive)
│    └─TNorm: 2-7                        [64, 32, 1026, 12]        65,664
├─ModuleList: 1-45                       --                        (recursive)
│    └─SNorm: 2-8                        [64, 32, 1026, 12]        64
├─ModuleList: 1-46                       --                        (recursive)
│    └─Conv2d: 2-9                       [64, 32, 1026, 10]        6,176
├─ModuleList: 1-47                       --                        (recursive)
│    └─Conv2d: 2-10                      [64, 32, 1026, 10]        6,176
├─ModuleList: 1-48                       --                        (recursive)
│    └─Conv2d: 2-11                      [64, 32, 1026, 10]        1,056
├─ModuleList: 1-49                       --                        (recursive)
│    └─Conv2d: 2-12                      [64, 32, 1026, 10]        1,056
├─ModuleList: 1-44                       --                        (recursive)
│    └─TNorm: 2-13                       [64, 32, 1026, 10]        65,664
├─ModuleList: 1-45                       --                        (recursive)
│    └─SNorm: 2-14                       [64, 32, 1026, 10]        64
├─ModuleList: 1-46                       --                        (recursive)
│    └─Conv2d: 2-15                      [64, 32, 1026, 9]         6,176
├─ModuleList: 1-47                       --                        (recursive)
│    └─Conv2d: 2-16                      [64, 32, 1026, 9]         6,176
├─ModuleList: 1-48                       --                        (recursive)
│    └─Conv2d: 2-17                      [64, 32, 1026, 9]         1,056
├─ModuleList: 1-49                       --                        (recursive)
│    └─Conv2d: 2-18                      [64, 32, 1026, 9]         1,056
├─ModuleList: 1-44                       --                        (recursive)
│    └─TNorm: 2-19                       [64, 32, 1026, 9]         65,664
├─ModuleList: 1-45                       --                        (recursive)
│    └─SNorm: 2-20                       [64, 32, 1026, 9]         64
├─ModuleList: 1-46                       --                        (recursive)
│    └─Conv2d: 2-21                      [64, 32, 1026, 7]         6,176
├─ModuleList: 1-47                       --                        (recursive)
│    └─Conv2d: 2-22                      [64, 32, 1026, 7]         6,176
├─ModuleList: 1-48                       --                        (recursive)
│    └─Conv2d: 2-23                      [64, 32, 1026, 7]         1,056
├─ModuleList: 1-49                       --                        (recursive)
│    └─Conv2d: 2-24                      [64, 32, 1026, 7]         1,056
├─ModuleList: 1-44                       --                        (recursive)
│    └─TNorm: 2-25                       [64, 32, 1026, 7]         65,664
├─ModuleList: 1-45                       --                        (recursive)
│    └─SNorm: 2-26                       [64, 32, 1026, 7]         64
├─ModuleList: 1-46                       --                        (recursive)
│    └─Conv2d: 2-27                      [64, 32, 1026, 6]         6,176
├─ModuleList: 1-47                       --                        (recursive)
│    └─Conv2d: 2-28                      [64, 32, 1026, 6]         6,176
├─ModuleList: 1-48                       --                        (recursive)
│    └─Conv2d: 2-29                      [64, 32, 1026, 6]         1,056
├─ModuleList: 1-49                       --                        (recursive)
│    └─Conv2d: 2-30                      [64, 32, 1026, 6]         1,056
├─ModuleList: 1-44                       --                        (recursive)
│    └─TNorm: 2-31                       [64, 32, 1026, 6]         65,664
├─ModuleList: 1-45                       --                        (recursive)
│    └─SNorm: 2-32                       [64, 32, 1026, 6]         64
├─ModuleList: 1-46                       --                        (recursive)
│    └─Conv2d: 2-33                      [64, 32, 1026, 4]         6,176
├─ModuleList: 1-47                       --                        (recursive)
│    └─Conv2d: 2-34                      [64, 32, 1026, 4]         6,176
├─ModuleList: 1-48                       --                        (recursive)
│    └─Conv2d: 2-35                      [64, 32, 1026, 4]         1,056
├─ModuleList: 1-49                       --                        (recursive)
│    └─Conv2d: 2-36                      [64, 32, 1026, 4]         1,056
├─ModuleList: 1-44                       --                        (recursive)
│    └─TNorm: 2-37                       [64, 32, 1026, 4]         65,664
├─ModuleList: 1-45                       --                        (recursive)
│    └─SNorm: 2-38                       [64, 32, 1026, 4]         64
├─ModuleList: 1-46                       --                        (recursive)
│    └─Conv2d: 2-39                      [64, 32, 1026, 3]         6,176
├─ModuleList: 1-47                       --                        (recursive)
│    └─Conv2d: 2-40                      [64, 32, 1026, 3]         6,176
├─ModuleList: 1-48                       --                        (recursive)
│    └─Conv2d: 2-41                      [64, 32, 1026, 3]         1,056
├─ModuleList: 1-49                       --                        (recursive)
│    └─Conv2d: 2-42                      [64, 32, 1026, 3]         1,056
├─ModuleList: 1-44                       --                        (recursive)
│    └─TNorm: 2-43                       [64, 32, 1026, 3]         65,664
├─ModuleList: 1-45                       --                        (recursive)
│    └─SNorm: 2-44                       [64, 32, 1026, 3]         64
├─ModuleList: 1-46                       --                        (recursive)
│    └─Conv2d: 2-45                      [64, 32, 1026, 1]         6,176
├─ModuleList: 1-47                       --                        (recursive)
│    └─Conv2d: 2-46                      [64, 32, 1026, 1]         6,176
├─ModuleList: 1-48                       --                        (recursive)
│    └─Conv2d: 2-47                      [64, 32, 1026, 1]         1,056
├─ModuleList: 1-49                       --                        (recursive)
│    └─Conv2d: 2-48                      [64, 32, 1026, 1]         1,056
├─Conv2d: 1-50                           [64, 32, 1026, 1]         1,056
├─Conv2d: 1-51                           [64, 12, 1026, 1]         396
==========================================================================================
Total params: 643,084
Trainable params: 643,084
Non-trainable params: 0
Total mult-adds (G): 49.57
==========================================================================================
Input size (MB): 6.30
Forward/backward pass size (MB): 5889.80
Params size (MB): 2.57
Estimated Total Size (MB): 5898.67
…
