…
        "subgraph_size": 20,
        "node_dim": 40,
        "dilation_exponential": 1,
        "conv_channels": 32,
        "residual_channels": 32,
        "skip_channels": 64,
        "end_channels": 128,
        "layers": 3,
        "propalpha": 0.05,
        "tanhalpha": 3,
        "layer_norm_affline": true
    }
}
==========================================================================================
Layer (type:depth-idx)                   Output Shape              Param #
==========================================================================================
MTGNN                                    [64, 12, 1026, 1]         3,168
├─graph_constructor: 1-1                 [1026, 1026]              --
│    └─Embedding: 2-1                    [1026, 40]                41,040
│    └─Embedding: 2-2                    [1026, 40]                41,040
│    └─Linear: 2-3                       [1026, 40]                1,640
│    └─Linear: 2-4                       [1026, 40]                1,640
├─Conv2d: 1-2                            [64, 32, 1026, 19]        96
├─Conv2d: 1-3                            [64, 64, 1026, 1]         2,496
├─ModuleList: 1-16                       --                        (recursive)
│    └─dilated_inception: 2-5            [64, 32, 1026, 13]        --
│    │    └─ModuleList: 3-1              --                        4,640
├─ModuleList: 1-17                       --                        (recursive)
│    └─dilated_inception: 2-6            [64, 32, 1026, 13]        --
│    │    └─ModuleList: 3-2              --                        4,640
├─ModuleList: 1-18                       --                        (recursive)
│    └─Conv2d: 2-7                       [64, 64, 1026, 1]         26,688
├─ModuleList: 1-19                       --                        (recursive)
│    └─mixprop: 2-8                      [64, 32, 1026, 13]        --
│    │    └─nconv: 3-3                   [64, 32, 1026, 13]        --
│    │    └─nconv: 3-4                   [64, 32, 1026, 13]        --
│    │    └─linear: 3-5                  [64, 32, 1026, 13]        3,104
├─ModuleList: 1-20                       --                        (recursive)
│    └─mixprop: 2-9                      [64, 32, 1026, 13]        --
│    │    └─nconv: 3-6                   [64, 32, 1026, 13]        --
│    │    └─nconv: 3-7                   [64, 32, 1026, 13]        --
│    │    └─linear: 3-8                  [64, 32, 1026, 13]        3,104
├─ModuleList: 1-21                       --                        (recursive)
│    └─LayerNorm: 2-10                   [64, 32, 1026, 13]        853,632
├─ModuleList: 1-16                       --                        (recursive)
│    └─dilated_inception: 2-11           [64, 32, 1026, 7]         --
│    │    └─ModuleList: 3-9              --                        4,640
├─ModuleList: 1-17                       --                        (recursive)
│    └─dilated_inception: 2-12           [64, 32, 1026, 7]         --
│    │    └─ModuleList: 3-10             --                        4,640
├─ModuleList: 1-18                       --                        (recursive)
│    └─Conv2d: 2-13                      [64, 64, 1026, 1]         14,400
├─ModuleList: 1-19                       --                        (recursive)
│    └─mixprop: 2-14                     [64, 32, 1026, 7]         --
│    │    └─nconv: 3-11                  [64, 32, 1026, 7]         --
│    │    └─nconv: 3-12                  [64, 32, 1026, 7]         --
│    │    └─linear: 3-13                 [64, 32, 1026, 7]         3,104
├─ModuleList: 1-20                       --                        (recursive)
│    └─mixprop: 2-15                     [64, 32, 1026, 7]         --
│    │    └─nconv: 3-14                  [64, 32, 1026, 7]         --
│    │    └─nconv: 3-15                  [64, 32, 1026, 7]         --
│    │    └─linear: 3-16                 [64, 32, 1026, 7]         3,104
├─ModuleList: 1-21                       --                        (recursive)
│    └─LayerNorm: 2-16                   [64, 32, 1026, 7]         459,648
├─ModuleList: 1-16                       --                        (recursive)
│    └─dilated_inception: 2-17           [64, 32, 1026, 1]         --
│    │    └─ModuleList: 3-17             --                        4,640
├─ModuleList: 1-17                       --                        (recursive)
│    └─dilated_inception: 2-18           [64, 32, 1026, 1]         --
│    │    └─ModuleList: 3-18             --                        4,640
├─ModuleList: 1-18                       --                        (recursive)
│    └─Conv2d: 2-19                      [64, 64, 1026, 1]         2,112
├─ModuleList: 1-19                       --                        (recursive)
│    └─mixprop: 2-20                     [64, 32, 1026, 1]         --
│    │    └─nconv: 3-19                  [64, 32, 1026, 1]         --
│    │    └─nconv: 3-20                  [64, 32, 1026, 1]         --
│    │    └─linear: 3-21                 [64, 32, 1026, 1]         3,104
├─ModuleList: 1-20                       --                        (recursive)
│    └─mixprop: 2-21                     [64, 32, 1026, 1]         --
│    │    └─nconv: 3-22                  [64, 32, 1026, 1]         --
│    │    └─nconv: 3-23                  [64, 32, 1026, 1]         --
│    │    └─linear: 3-24                 [64, 32, 1026, 1]         3,104
├─ModuleList: 1-21                       --                        (recursive)
│    └─LayerNorm: 2-22                   [64, 32, 1026, 1]         65,664
├─Conv2d: 1-22                           [64, 64, 1026, 1]         2,112
├─Conv2d: 1-23                           [64, 128, 1026, 1]        8,320
├─Conv2d: 1-24                           [64, 12, 1026, 1]         1,548
==========================================================================================
Total params: 1,571,708
Trainable params: 1,571,708
Non-trainable params: 0
Total mult-adds (G): 28.30
==========================================================================================
Input size (MB): 6.30
Forward/backward pass size (MB): 2579.54
Params size (MB): 6.27
Estimated Total Size (MB): 2592.12
…
