…
    "max_epochs": 200,
    "pass_device": true,
    "model_args": {
        "num_nodes": 207,
        "tnorm_bool": false,
        "snorm_bool": false,
        "in_dim": 1,
        "out_dim": 12,
        "channels": 16,
        "kernel_size": 2,
        "blocks": 4,
        "layers": 2,
        "device": "cuda:0"
    }
}
==========================================================================================
Layer (type:depth-idx)                   Output Shape              Param #
==========================================================================================
STNorm                                   [64, 12, 207, 1]          --
├─Conv2d: 1-1                            [64, 16, 207, 13]         32
├─ModuleList: 1-30                       --                        (recursive)
│    └─Conv2d: 2-1                       [64, 16, 207, 12]         528
├─ModuleList: 1-31                       --                        (recursive)
│    └─Conv2d: 2-2                       [64, 16, 207, 12]         528
├─ModuleList: 1-32                       --                        (recursive)
│    └─Conv2d: 2-3                       [64, 16, 207, 12]         272
├─ModuleList: 1-33                       --                        (recursive)
│    └─Conv2d: 2-4                       [64, 16, 207, 12]         272
├─ModuleList: 1-30                       --                        (recursive)
│    └─Conv2d: 2-5                       [64, 16, 207, 10]         528
├─ModuleList: 1-31                       --                        (recursive)
│    └─Conv2d: 2-6                       [64, 16, 207, 10]         528
├─ModuleList: 1-32                       --                        (recursive)
│    └─Conv2d: 2-7                       [64, 16, 207, 10]         272
├─ModuleList: 1-33                       --                        (recursive)
│    └─Conv2d: 2-8                       [64, 16, 207, 10]         272
├─ModuleList: 1-30                       --                        (recursive)
│    └─Conv2d: 2-9                       [64, 16, 207, 9]          528
├─ModuleList: 1-31                       --                        (recursive)
│    └─Conv2d: 2-10                      [64, 16, 207, 9]          528
├─ModuleList: 1-32                       --                        (recursive)
│    └─Conv2d: 2-11                      [64, 16, 207, 9]          272
├─ModuleList: 1-33                       --                        (recursive)
│    └─Conv2d: 2-12                      [64, 16, 207, 9]          272
├─ModuleList: 1-30                       --                        (recursive)
│    └─Conv2d: 2-13                      [64, 16, 207, 7]          528
├─ModuleList: 1-31                       --                        (recursive)
│    └─Conv2d: 2-14                      [64, 16, 207, 7]          528
├─ModuleList: 1-32                       --                        (recursive)
│    └─Conv2d: 2-15                      [64, 16, 207, 7]          272
├─ModuleList: 1-33                       --                        (recursive)
│    └─Conv2d: 2-16                      [64, 16, 207, 7]          272
├─ModuleList: 1-30                       --                        (recursive)
│    └─Conv2d: 2-17                      [64, 16, 207, 6]          528
├─ModuleList: 1-31                       --                        (recursive)
│    └─Conv2d: 2-18                      [64, 16, 207, 6]          528
├─ModuleList: 1-32                       --                        (recursive)
│    └─Conv2d: 2-19                      [64, 16, 207, 6]          272
├─ModuleList: 1-33                       --                        (recursive)
│    └─Conv2d: 2-20                      [64, 16, 207, 6]          272
├─ModuleList: 1-30                       --                        (recursive)
│    └─Conv2d: 2-21                      [64, 16, 207, 4]          528
├─ModuleList: 1-31                       --                        (recursive)
│    └─Conv2d: 2-22                      [64, 16, 207, 4]          528
├─ModuleList: 1-32                       --                        (recursive)
│    └─Conv2d: 2-23                      [64, 16, 207, 4]          272
├─ModuleList: 1-33                       --                        (recursive)
│    └─Conv2d: 2-24                      [64, 16, 207, 4]          272
├─ModuleList: 1-30                       --                        (recursive)
│    └─Conv2d: 2-25                      [64, 16, 207, 3]          528
├─ModuleList: 1-31                       --                        (recursive)
│    └─Conv2d: 2-26                      [64, 16, 207, 3]          528
├─ModuleList: 1-32                       --                        (recursive)
│    └─Conv2d: 2-27                      [64, 16, 207, 3]          272
├─ModuleList: 1-33                       --                        (recursive)
│    └─Conv2d: 2-28                      [64, 16, 207, 3]          272
├─ModuleList: 1-30                       --                        (recursive)
│    └─Conv2d: 2-29                      [64, 16, 207, 1]          528
├─ModuleList: 1-31                       --                        (recursive)
│    └─Conv2d: 2-30                      [64, 16, 207, 1]          528
├─ModuleList: 1-32                       --                        (recursive)
│    └─Conv2d: 2-31                      [64, 16, 207, 1]          272
├─ModuleList: 1-33                       --                        (recursive)
│    └─Conv2d: 2-32                      [64, 16, 207, 1]          272
├─Conv2d: 1-34                           [64, 16, 207, 1]          272
├─Conv2d: 1-35                           [64, 12, 207, 1]          204
==========================================================================================
Total params: 13,308
Trainable params: 13,308
Non-trainable params: 0
Total mult-adds (G): 1.11
==========================================================================================
Input size (MB): 0.64
Forward/backward pass size (MB): 377.73
Params size (MB): 0.05
Estimated Total Size (MB): 378.42
==========================================================================================
…
