…
    "batch_size": 64,
    "max_epochs": 200,
    "use_cl": false,
    "load_npz": false,
    "with_embeddings": true,
    "model_args": {
        "num_nodes": 207,
        "out_steps": 12,
        "lstm_input_dim": 1,
        "lstm_hidden_dim": 64,
        "s_embedding_dim": 64,
        "learner_hidden_dim": 64
    }
}
==========================================================================================
Layer (type:depth-idx)                   Output Shape              Param #
==========================================================================================
SMetaLSTM                                [64, 12, 207, 1]          --
├─ModuleList: 1-10                       --                        (recursive)
│    └─Sequential: 2-1                   [207, 64]                 --
│    │    └─Linear: 3-1                  [207, 64]                 4,160
│    │    └─ReLU: 3-2                    [207, 64]                 --
│    │    └─Linear: 3-3                  [207, 64]                 4,160
├─ModuleList: 1-11                       --                        (recursive)
│    └─Sequential: 2-2                   [207, 4096]               --
│    │    └─Linear: 3-4                  [207, 64]                 4,160
│    │    └─ReLU: 3-5                    [207, 64]                 --
│    │    └─Linear: 3-6                  [207, 4096]               266,240
├─ModuleList: 1-12                       --                        (recursive)
│    └─Sequential: 2-3                   [207, 64]                 --
│    │    └─Linear: 3-7                  [207, 64]                 4,160
│    │    └─ReLU: 3-8                    [207, 64]                 --
│    │    └─Linear: 3-9                  [207, 64]                 4,160
├─ModuleList: 1-10                       --                        (recursive)
│    └─Sequential: 2-4                   [207, 64]                 --
│    │    └─Linear: 3-10                 [207, 64]                 4,160
│    │    └─ReLU: 3-11                   [207, 64]                 --
│    │    └─Linear: 3-12                 [207, 64]                 4,160
├─ModuleList: 1-11                       --                        (recursive)
│    └─Sequential: 2-5                   [207, 4096]               --
│    │    └─Linear: 3-13                 [207, 64]                 4,160
│    │    └─ReLU: 3-14                   [207, 64]                 --
│    │    └─Linear: 3-15                 [207, 4096]               266,240
├─ModuleList: 1-12                       --                        (recursive)
│    └─Sequential: 2-6                   [207, 64]                 --
│    │    └─Linear: 3-16                 [207, 64]                 4,160
│    │    └─ReLU: 3-17                   [207, 64]                 --
│    │    └─Linear: 3-18                 [207, 64]                 4,160
├─ModuleList: 1-10                       --                        (recursive)
│    └─Sequential: 2-7                   [207, 64]                 --
│    │    └─Linear: 3-19                 [207, 64]                 4,160
│    │    └─ReLU: 3-20                   [207, 64]                 --
│    │    └─Linear: 3-21                 [207, 64]                 4,160
├─ModuleList: 1-11                       --                        (recursive)
│    └─Sequential: 2-8                   [207, 4096]               --
│    │    └─Linear: 3-22                 [207, 64]                 4,160
│    │    └─ReLU: 3-23                   [207, 64]                 --
│    │    └─Linear: 3-24                 [207, 4096]               266,240
├─ModuleList: 1-12                       --                        (recursive)
│    └─Sequential: 2-9                   [207, 64]                 --
│    │    └─Linear: 3-25                 [207, 64]                 4,160
│    │    └─ReLU: 3-26                   [207, 64]                 --
│    │    └─Linear: 3-27                 [207, 64]                 4,160
├─ModuleList: 1-10                       --                        (recursive)
│    └─Sequential: 2-10                  [207, 64]                 --
│    │    └─Linear: 3-28                 [207, 64]                 4,160
│    │    └─ReLU: 3-29                   [207, 64]                 --
│    │    └─Linear: 3-30                 [207, 64]                 4,160
├─ModuleList: 1-11                       --                        (recursive)
│    └─Sequential: 2-11                  [207, 4096]               --
│    │    └─Linear: 3-31                 [207, 64]                 4,160
│    │    └─ReLU: 3-32                   [207, 64]                 --
│    │    └─Linear: 3-33                 [207, 4096]               266,240
├─ModuleList: 1-12                       --                        (recursive)
│    └─Sequential: 2-12                  [207, 64]                 --
│    │    └─Linear: 3-34                 [207, 64]                 4,160
│    │    └─ReLU: 3-35                   [207, 64]                 --
│    │    └─Linear: 3-36                 [207, 64]                 4,160
├─Sequential: 1-13                       [64, 207, 12]             --
│    └─ReLU: 2-13                        [64, 207, 64]             --
│    └─Linear: 2-14                      [64, 207, 32]             2,080
│    └─ReLU: 2-15                        [64, 207, 32]             --
│    └─Linear: 2-16                      [64, 207, 12]             396
==========================================================================================
Total params: 1,150,636
Trainable params: 1,150,636
Non-trainable params: 0
Total mult-adds (M): 237.83
==========================================================================================
Input size (MB): 61.68
Forward/backward pass size (MB): 33.91
Params size (MB): 4.60
Estimated Total Size (MB): 100.20
…
