…
    "weight_decay": 0,
    "milestones": [
        10,
        30
    ],
    "clip_grad": 0,
    "batch_size": 64,
    "max_epochs": 200,
    "use_cl": false,
    "model_args": {
        "in_steps": 12,
        "out_steps": 12,
        "input_dim": 1,
        "output_dim": 1,
        "hidden_dim": 256
    }
}
==========================================================================================
Layer (type:depth-idx)                   Output Shape              Param #
==========================================================================================
MLP                                      [64, 12, 307, 1]          --
├─Sequential: 1-1                        [64, 307, 12]             --
│    └─Linear: 2-1                       [64, 307, 256]            3,328
│    └─ReLU: 2-2                         [64, 307, 256]            --
│    └─Linear: 2-3                       [64, 307, 12]             3,084
==========================================================================================
Total params: 6,412
Trainable params: 6,412
Non-trainable params: 0
Total mult-adds (M): 0.41
==========================================================================================
Input size (MB): 0.94
Forward/backward pass size (MB): 42.13
Params size (MB): 0.03
Estimated Total Size (MB): 43.09
==========================================================================================
…
