…
        30
    ],
    "clip_grad": 5,
    "batch_size": 64,
    "max_epochs": 200,
    "early_stop": 10,
    "model_args": {
        "num_nodes": 883,
        "seq_len": 12,
        "pred_len": 12,
        "input_dim": 1,
        "output_dim": 1,
        "hidden_dim": 256,
        "num_layers": 3
    }
}
==========================================================================================
Layer (type:depth-idx)                   Output Shape              Param #
==========================================================================================
Mamba                                    [64, 12, 883, 1]          --
├─Linear: 1-1                            [64, 12, 256]             226,304
├─MambaMain: 1-2                         [64, 12, 256]             --
│    └─ModuleList: 2-1                   --                        --
│    │    └─ResidualBlock: 3-1           [64, 12, 256]             438,016
│    │    └─ResidualBlock: 3-2           [64, 12, 256]             438,016
│    │    └─ResidualBlock: 3-3           [64, 12, 256]             438,016
├─Linear: 1-3                            [64, 12, 883]             226,931
├─Conv1d: 1-4                            [64, 12, 883]             156
==========================================================================================
Total params: 1,767,439
Trainable params: 1,767,439
Non-trainable params: 0
Total mult-adds (M): 125.46
==========================================================================================
Input size (MB): 2.71
Forward/backward pass size (MB): 53.42
Params size (MB): 6.86
Estimated Total Size (MB): 62.99
…
