…
        20
    ],
    "clip_grad": 5,
    "batch_size": 64,
    "max_epochs": 200,
    "early_stop": 10,
    "model_args": {
        "num_nodes": 170,
        "seq_len": 12,
        "pred_len": 12,
        "input_dim": 1,
        "output_dim": 1,
        "hidden_dim": 256,
        "num_layers": 3
    }
}
==========================================================================================
Layer (type:depth-idx)                   Output Shape              Param #
==========================================================================================
Mamba                                    [64, 12, 170, 1]          --
├─Linear: 1-1                            [64, 12, 256]             43,776
├─MambaMain: 1-2                         [64, 12, 256]             --
│    └─ModuleList: 2-1                   --                        --
│    │    └─ResidualBlock: 3-1           [64, 12, 256]             438,016
│    │    └─ResidualBlock: 3-2           [64, 12, 256]             438,016
│    │    └─ResidualBlock: 3-3           [64, 12, 256]             438,016
├─Linear: 1-3                            [64, 12, 170]             43,690
├─Conv1d: 1-4                            [64, 12, 170]             156
==========================================================================================
Total params: 1,401,670
Trainable params: 1,401,670
Non-trainable params: 0
Total mult-adds (M): 94.93
==========================================================================================
Input size (MB): 0.52
Forward/backward pass size (MB): 44.65
Params size (MB): 5.40
Estimated Total Size (MB): 50.57
…
