…
        20
    ],
    "clip_grad": 5,
    "batch_size": 64,
    "max_epochs": 200,
    "early_stop": 10,
    "model_args": {
        "num_nodes": 307,
        "seq_len": 12,
        "pred_len": 12,
        "input_dim": 1,
        "output_dim": 1,
        "hidden_dim": 256,
        "num_layers": 3
    }
}
==========================================================================================
Layer (type:depth-idx)                   Output Shape              Param #
==========================================================================================
Mamba                                    [64, 12, 307, 1]          --
├─Linear: 1-1                            [64, 12, 256]             78,848
├─MambaMain: 1-2                         [64, 12, 256]             --
│    └─ModuleList: 2-1                   --                        --
│    │    └─ResidualBlock: 3-1           [64, 12, 256]             438,016
│    │    └─ResidualBlock: 3-2           [64, 12, 256]             438,016
│    │    └─ResidualBlock: 3-3           [64, 12, 256]             438,016
├─Linear: 1-3                            [64, 12, 307]             78,899
├─Conv1d: 1-4                            [64, 12, 307]             156
==========================================================================================
Total params: 1,471,951
Trainable params: 1,471,951
Non-trainable params: 0
Total mult-adds (M): 100.80
==========================================================================================
Input size (MB): 0.94
Forward/backward pass size (MB): 46.34
Params size (MB): 5.68
Estimated Total Size (MB): 52.96
…
