…
    "max_epochs": 200,
    "model_args": {
        "num_nodes": 883,
        "in_steps": 12,
        "out_steps": 12,
        "input_dim": 1,
        "output_dim": 1,
        "model_dim": 64,
        "feed_forward_dim": 256,
        "num_heads": 4,
        "num_layers": 3,
        "with_spatial": false
    }
}
==========================================================================================
Layer (type:depth-idx)                   Output Shape              Param #
==========================================================================================
Transformer                              [32, 12, 883, 1]          --
├─Linear: 1-1                            [32, 12, 883, 64]         128
├─Linear: 1-2                            [32, 12, 883, 64]         128
├─ModuleList: 1-3                        --                        --
│    └─SelfAttentionLayer: 2-1           [32, 12, 883, 64]         --
│    │    └─AttentionLayer: 3-1          [32, 883, 12, 64]         16,640
│    │    └─Dropout: 3-2                 [32, 883, 12, 64]         --
│    │    └─LayerNorm: 3-3               [32, 883, 12, 64]         128
│    │    └─Sequential: 3-4              [32, 883, 12, 64]         33,088
│    │    └─Dropout: 3-5                 [32, 883, 12, 64]         --
│    │    └─LayerNorm: 3-6               [32, 883, 12, 64]         128
│    └─SelfAttentionLayer: 2-2           [32, 12, 883, 64]         --
│    │    └─AttentionLayer: 3-7          [32, 883, 12, 64]         16,640
│    │    └─Dropout: 3-8                 [32, 883, 12, 64]         --
│    │    └─LayerNorm: 3-9               [32, 883, 12, 64]         128
│    │    └─Sequential: 3-10             [32, 883, 12, 64]         33,088
│    │    └─Dropout: 3-11                [32, 883, 12, 64]         --
│    │    └─LayerNorm: 3-12              [32, 883, 12, 64]         128
│    └─SelfAttentionLayer: 2-3           [32, 12, 883, 64]         --
│    │    └─AttentionLayer: 3-13         [32, 883, 12, 64]         16,640
│    │    └─Dropout: 3-14                [32, 883, 12, 64]         --
│    │    └─LayerNorm: 3-15              [32, 883, 12, 64]         128
│    │    └─Sequential: 3-16             [32, 883, 12, 64]         33,088
│    │    └─Dropout: 3-17                [32, 883, 12, 64]         --
│    │    └─LayerNorm: 3-18              [32, 883, 12, 64]         128
├─Linear: 1-4                            [32, 64, 883, 12]         156
├─Linear: 1-5                            [32, 12, 883, 1]          65
==========================================================================================
Total params: 150,429
Trainable params: 150,429
Non-trainable params: 0
Total mult-adds (M): 4.81
==========================================================================================
Input size (MB): 2.71
Forward/backward pass size (MB): 6252.49
Params size (MB): 0.60
Estimated Total Size (MB): 6255.80
…
