…
    "max_epochs": 200,
    "model_args": {
        "num_nodes": 883,
        "in_steps": 12,
        "out_steps": 12,
        "input_dim": 1,
        "output_dim": 1,
        "model_dim": 64,
        "feed_forward_dim": 256,
        "num_heads": 4,
        "num_layers": 3,
        "with_spatial": true
    }
}
==========================================================================================
Layer (type:depth-idx)                   Output Shape              Param #
==========================================================================================
Transformer                              [16, 12, 883, 1]          --
├─Linear: 1-1                            [16, 12, 883, 64]         128
├─Linear: 1-2                            [16, 12, 883, 64]         128
├─ModuleList: 1-3                        --                        --
│    └─SelfAttentionLayer: 2-1           [16, 12, 883, 64]         --
│    │    └─AttentionLayer: 3-1          [16, 883, 12, 64]         16,640
│    │    └─Dropout: 3-2                 [16, 883, 12, 64]         --
│    │    └─LayerNorm: 3-3               [16, 883, 12, 64]         128
│    │    └─Sequential: 3-4              [16, 883, 12, 64]         33,088
│    │    └─Dropout: 3-5                 [16, 883, 12, 64]         --
│    │    └─LayerNorm: 3-6               [16, 883, 12, 64]         128
│    └─SelfAttentionLayer: 2-2           [16, 12, 883, 64]         --
│    │    └─AttentionLayer: 3-7          [16, 883, 12, 64]         16,640
│    │    └─Dropout: 3-8                 [16, 883, 12, 64]         --
│    │    └─LayerNorm: 3-9               [16, 883, 12, 64]         128
│    │    └─Sequential: 3-10             [16, 883, 12, 64]         33,088
│    │    └─Dropout: 3-11                [16, 883, 12, 64]         --
│    │    └─LayerNorm: 3-12              [16, 883, 12, 64]         128
│    └─SelfAttentionLayer: 2-3           [16, 12, 883, 64]         --
│    │    └─AttentionLayer: 3-13         [16, 883, 12, 64]         16,640
│    │    └─Dropout: 3-14                [16, 883, 12, 64]         --
│    │    └─LayerNorm: 3-15              [16, 883, 12, 64]         128
│    │    └─Sequential: 3-16             [16, 883, 12, 64]         33,088
│    │    └─Dropout: 3-17                [16, 883, 12, 64]         --
│    │    └─LayerNorm: 3-18              [16, 883, 12, 64]         128
├─ModuleList: 1-4                        --                        --
│    └─SelfAttentionLayer: 2-4           [16, 12, 883, 64]         --
│    │    └─AttentionLayer: 3-19         [16, 12, 883, 64]         16,640
│    │    └─Dropout: 3-20                [16, 12, 883, 64]         --
│    │    └─LayerNorm: 3-21              [16, 12, 883, 64]         128
│    │    └─Sequential: 3-22             [16, 12, 883, 64]         33,088
│    │    └─Dropout: 3-23                [16, 12, 883, 64]         --
│    │    └─LayerNorm: 3-24              [16, 12, 883, 64]         128
│    └─SelfAttentionLayer: 2-5           [16, 12, 883, 64]         --
│    │    └─AttentionLayer: 3-25         [16, 12, 883, 64]         16,640
│    │    └─Dropout: 3-26                [16, 12, 883, 64]         --
│    │    └─LayerNorm: 3-27              [16, 12, 883, 64]         128
│    │    └─Sequential: 3-28             [16, 12, 883, 64]         33,088
│    │    └─Dropout: 3-29                [16, 12, 883, 64]         --
│    │    └─LayerNorm: 3-30              [16, 12, 883, 64]         128
│    └─SelfAttentionLayer: 2-6           [16, 12, 883, 64]         --
│    │    └─AttentionLayer: 3-31         [16, 12, 883, 64]         16,640
│    │    └─Dropout: 3-32                [16, 12, 883, 64]         --
│    │    └─LayerNorm: 3-33              [16, 12, 883, 64]         128
│    │    └─Sequential: 3-34             [16, 12, 883, 64]         33,088
│    │    └─Dropout: 3-35                [16, 12, 883, 64]         --
│    │    └─LayerNorm: 3-36              [16, 12, 883, 64]         128
├─Linear: 1-5                            [16, 64, 883, 12]         156
├─Linear: 1-6                            [16, 12, 883, 1]          65
==========================================================================================
Total params: 300,381
Trainable params: 300,381
Non-trainable params: 0
Total mult-adds (M): 4.81
==========================================================================================
Input size (MB): 1.36
Forward/backward pass size (MB): 5990.72
Params size (MB): 1.20
Estimated Total Size (MB): 5993.28
…
