…
        "input_dim": 3,
        "embed_dim": 32,
        "node_dim": 32,
        "temp_dim_tid": 32,
        "temp_dim_diw": 32,
        "time_of_day_size": 24,
        "day_of_week_size": 7,
        "if_node": true,
        "if_time_in_day": true,
        "if_day_in_week": true,
        "num_layer": 3
    }
}
==========================================================================================
Layer (type:depth-idx)                   Output Shape              Param #
==========================================================================================
STID                                     [32, 1, 321, 1]           11,264
├─Conv2d: 1-1                            [32, 32, 321, 1]          16,160
├─Sequential: 1-2                        [32, 128, 321, 1]         --
│    └─MultiLayerPerceptron: 2-1         [32, 128, 321, 1]         --
│    │    └─Conv2d: 3-1                  [32, 128, 321, 1]         16,512
│    │    └─ReLU: 3-2                    [32, 128, 321, 1]         --
│    │    └─Dropout: 3-3                 [32, 128, 321, 1]         --
│    │    └─Conv2d: 3-4                  [32, 128, 321, 1]         16,512
│    └─MultiLayerPerceptron: 2-2         [32, 128, 321, 1]         --
│    │    └─Conv2d: 3-5                  [32, 128, 321, 1]         16,512
│    │    └─ReLU: 3-6                    [32, 128, 321, 1]         --
│    │    └─Dropout: 3-7                 [32, 128, 321, 1]         --
│    │    └─Conv2d: 3-8                  [32, 128, 321, 1]         16,512
│    └─MultiLayerPerceptron: 2-3         [32, 128, 321, 1]         --
│    │    └─Conv2d: 3-9                  [32, 128, 321, 1]         16,512
│    │    └─ReLU: 3-10                   [32, 128, 321, 1]         --
│    │    └─Dropout: 3-11                [32, 128, 321, 1]         --
│    │    └─Conv2d: 3-12                 [32, 128, 321, 1]         16,512
├─Conv2d: 1-3                            [32, 1, 321, 1]           129
==========================================================================================
Total params: 126,625
Trainable params: 126,625
Non-trainable params: 0
Total mult-adds (G): 1.18
==========================================================================================
Input size (MB): 20.71
Forward/backward pass size (MB): 65.82
Params size (MB): 0.46
Estimated Total Size (MB): 86.99
==========================================================================================
…
