…
        "temp_dim_tid": 32,
        "temp_dim_diw": 32,
        "time_of_day_size": 288,
        "day_of_week_size": 7,
        "if_node": true,
        "if_time_in_day": true,
        "if_day_in_week": true,
        "num_layer": 3
    }
}
==========================================================================================
Layer (type:depth-idx)                   Output Shape              Param #
==========================================================================================
STID                                     --                        --
├─Conv2d: 1-1                            [64, 32, 883, 1]          1,184
├─Sequential: 1-2                        [64, 128, 883, 1]         --
│    └─MultiLayerPerceptron: 2-1         [64, 128, 883, 1]         --
│    │    └─Conv2d: 3-1                  [64, 128, 883, 1]         16,512
│    │    └─ReLU: 3-2                    [64, 128, 883, 1]         --
│    │    └─Dropout: 3-3                 [64, 128, 883, 1]         --
│    │    └─Conv2d: 3-4                  [64, 128, 883, 1]         16,512
│    └─MultiLayerPerceptron: 2-2         [64, 128, 883, 1]         --
│    │    └─Conv2d: 3-5                  [64, 128, 883, 1]         16,512
│    │    └─ReLU: 3-6                    [64, 128, 883, 1]         --
│    │    └─Dropout: 3-7                 [64, 128, 883, 1]         --
│    │    └─Conv2d: 3-8                  [64, 128, 883, 1]         16,512
│    └─MultiLayerPerceptron: 2-3         [64, 128, 883, 1]         --
│    │    └─Conv2d: 3-9                  [64, 128, 883, 1]         16,512
│    │    └─ReLU: 3-10                   [64, 128, 883, 1]         --
│    │    └─Dropout: 3-11                [64, 128, 883, 1]         --
│    │    └─Conv2d: 3-12                 [64, 128, 883, 1]         16,512
├─Conv2d: 1-3                            [64, 12, 883, 1]          1,548
==========================================================================================
Total params: 101,804
Trainable params: 101,804
Non-trainable params: 0
Total mult-adds (G): 5.75
==========================================================================================
Input size (MB): 8.14
Forward/backward pass size (MB): 367.10
Params size (MB): 0.41
Estimated Total Size (MB): 375.65
==========================================================================================
…
