…
        "input_dim": 3,
        "embed_dim": 32,
        "node_dim": 32,
        "temp_dim_tid": 32,
        "temp_dim_diw": 32,
        "time_of_day_size": 288,
        "day_of_week_size": 5,
        "if_node": true,
        "if_time_in_day": true,
        "if_day_in_week": true,
        "num_layer": 3
    }
}
==========================================================================================
Layer (type:depth-idx)                   Output Shape              Param #
==========================================================================================
STID                                     [32, 12, 1026, 1]         42,208
├─Conv2d: 1-1                            [32, 32, 1026, 1]         1,184
├─Sequential: 1-2                        [32, 128, 1026, 1]        --
│    └─MultiLayerPerceptron: 2-1         [32, 128, 1026, 1]        --
│    │    └─Conv2d: 3-1                  [32, 128, 1026, 1]        16,512
│    │    └─ReLU: 3-2                    [32, 128, 1026, 1]        --
│    │    └─Dropout: 3-3                 [32, 128, 1026, 1]        --
│    │    └─Conv2d: 3-4                  [32, 128, 1026, 1]        16,512
│    └─MultiLayerPerceptron: 2-2         [32, 128, 1026, 1]        --
│    │    └─Conv2d: 3-5                  [32, 128, 1026, 1]        16,512
│    │    └─ReLU: 3-6                    [32, 128, 1026, 1]        --
│    │    └─Dropout: 3-7                 [32, 128, 1026, 1]        --
│    │    └─Conv2d: 3-8                  [32, 128, 1026, 1]        16,512
│    └─MultiLayerPerceptron: 2-3         [32, 128, 1026, 1]        --
│    │    └─Conv2d: 3-9                  [32, 128, 1026, 1]        16,512
│    │    └─ReLU: 3-10                   [32, 128, 1026, 1]        --
│    │    └─Dropout: 3-11                [32, 128, 1026, 1]        --
│    │    └─Conv2d: 3-12                 [32, 128, 1026, 1]        16,512
├─Conv2d: 1-3                            [32, 12, 1026, 1]         1,548
==========================================================================================
Total params: 144,012
Trainable params: 144,012
Non-trainable params: 0
Total mult-adds (G): 3.34
==========================================================================================
Input size (MB): 4.73
Forward/backward pass size (MB): 213.28
Params size (MB): 0.41
Estimated Total Size (MB): 218.41
==========================================================================================
…
