…
        "output_dim": 1,
        "gru_hidden_dim": 32,
        "tod_embedding_dim": 24,
        "dow_embedding_dim": 7,
        "node_embedding_dim": 64,
        "learner_hidden_dim": 128,
        "z_dim": 32,
        "num_layers": 1,
        "cheb_k": 3,
        "seq2seq": false,
        "device": "cuda:0"
    }
}
==========================================================================================
Layer (type:depth-idx)                   Output Shape              Param #
==========================================================================================
STMetaGCGRU                              [64, 12, 325, 1]          20,800
├─Sequential: 1-1                        [64, 325, 32]             --
│    └─Linear: 2-1                       [64, 325, 32]             416
│    └─Tanh: 2-2                         [64, 325, 32]             --
│    └─Linear: 2-3                       [64, 325, 32]             1,056
│    └─Tanh: 2-4                         [64, 325, 32]             --
│    └─Linear: 2-5                       [64, 325, 32]             1,056
├─Sequential: 1-2                        [64, 325, 32]             --
│    └─Linear: 2-6                       [64, 325, 32]             416
│    └─Tanh: 2-7                         [64, 325, 32]             --
│    └─Linear: 2-8                       [64, 325, 32]             1,056
│    └─Tanh: 2-9                         [64, 325, 32]             --
│    └─Linear: 2-10                      [64, 325, 32]             1,056
├─ModuleList: 1-3                        --                        --
│    └─STMetaGCGRUEncoder: 2-11          [64, 12, 325, 32]         --
│    │    └─Sequential: 3-1              [64, 325, 12672]          1,651,072
│    │    └─Sequential: 3-2              [64, 325, 64]             24,640
│    │    └─Sequential: 3-3              [64, 325, 6336]           833,728
│    │    └─Sequential: 3-4              [64, 325, 32]             20,512
│    │    └─STMetaGCGRUCell: 3-5         [64, 325, 32]             --
│    │    └─STMetaGCGRUCell: 3-6         [64, 325, 32]             --
│    │    └─STMetaGCGRUCell: 3-7         [64, 325, 32]             --
│    │    └─STMetaGCGRUCell: 3-8         [64, 325, 32]             --
│    │    └─STMetaGCGRUCell: 3-9         [64, 325, 32]             --
│    │    └─STMetaGCGRUCell: 3-10        [64, 325, 32]             --
│    │    └─STMetaGCGRUCell: 3-11        [64, 325, 32]             --
│    │    └─STMetaGCGRUCell: 3-12        [64, 325, 32]             --
│    │    └─STMetaGCGRUCell: 3-13        [64, 325, 32]             --
│    │    └─STMetaGCGRUCell: 3-14        [64, 325, 32]             --
│    │    └─STMetaGCGRUCell: 3-15        [64, 325, 32]             --
│    │    └─STMetaGCGRUCell: 3-16        [64, 325, 32]             --
├─Linear: 1-4                            [64, 325, 12]             396
==========================================================================================
Total params: 2,556,204
Trainable params: 2,556,204
Non-trainable params: 0
Total mult-adds (M): 162.27
==========================================================================================
Input size (MB): 3.00
Forward/backward pass size (MB): 3298.05
Params size (MB): 10.14
Estimated Total Size (MB): 3311.18
…
