…
        "output_dim": 1,
        "gru_hidden_dim": 32,
        "tod_embedding_dim": 24,
        "dow_embedding_dim": 7,
        "node_embedding_dim": 64,
        "learner_hidden_dim": 128,
        "z_dim": 32,
        "num_layers": 1,
        "cheb_k": 3,
        "seq2seq": true,
        "device": "cuda:0"
    }
}
==========================================================================================
Layer (type:depth-idx)                   Output Shape              Param #
==========================================================================================
STMetaGCGRU                              [64, 12, 207, 1]          --
├─Sequential: 1-1                        [64, 207, 32]             --
│    └─Linear: 2-1                       [64, 207, 32]             416
│    └─Tanh: 2-2                         [64, 207, 32]             --
│    └─Linear: 2-3                       [64, 207, 32]             1,056
│    └─Tanh: 2-4                         [64, 207, 32]             --
│    └─Linear: 2-5                       [64, 207, 32]             1,056
├─Sequential: 1-2                        [64, 207, 32]             --
│    └─Linear: 2-6                       [64, 207, 32]             416
│    └─Tanh: 2-7                         [64, 207, 32]             --
│    └─Linear: 2-8                       [64, 207, 32]             1,056
│    └─Tanh: 2-9                         [64, 207, 32]             --
│    └─Linear: 2-10                      [64, 207, 32]             1,056
├─ModuleList: 1-3                        --                        --
│    └─STMetaGCGRUEncoder: 2-11          [64, 12, 207, 32]         --
│    │    └─Sequential: 3-1              [64, 207, 12672]          1,651,072
│    │    └─Sequential: 3-2              [64, 207, 64]             24,640
│    │    └─Sequential: 3-3              [64, 207, 6336]           833,728
│    │    └─Sequential: 3-4              [64, 207, 32]             20,512
│    │    └─STMetaGCGRUCell: 3-5         [64, 207, 32]             --
│    │    └─STMetaGCGRUCell: 3-6         [64, 207, 32]             --
│    │    └─STMetaGCGRUCell: 3-7         [64, 207, 32]             --
│    │    └─STMetaGCGRUCell: 3-8         [64, 207, 32]             --
│    │    └─STMetaGCGRUCell: 3-9         [64, 207, 32]             --
│    │    └─STMetaGCGRUCell: 3-10        [64, 207, 32]             --
│    │    └─STMetaGCGRUCell: 3-11        [64, 207, 32]             --
│    │    └─STMetaGCGRUCell: 3-12        [64, 207, 32]             --
│    │    └─STMetaGCGRUCell: 3-13        [64, 207, 32]             --
│    │    └─STMetaGCGRUCell: 3-14        [64, 207, 32]             --
│    │    └─STMetaGCGRUCell: 3-15        [64, 207, 32]             --
│    │    └─STMetaGCGRUCell: 3-16        [64, 207, 32]             --
├─ModuleList: 1-26                       --                        (recursive)
│    └─STMetaGCGRUDecoder: 2-12          --                        (recursive)
│    │    └─Sequential: 3-17             [64, 207, 12672]          1,651,072
│    │    └─Sequential: 3-18             [64, 207, 64]             24,640
│    │    └─Sequential: 3-19             [64, 207, 6336]           833,728
│    │    └─Sequential: 3-20             [64, 207, 32]             20,512
│    └─STMetaGCGRUDecoder: 2-13          [64, 207, 32]             2,529,952
│    │    └─STMetaGCGRUCell: 3-21        [64, 207, 32]             --
├─Linear: 1-5                            [64, 207, 1]              33
├─ModuleList: 1-26                       --                        (recursive)
│    └─STMetaGCGRUDecoder: 2-14          [64, 207, 32]             (recursive)
│    │    └─STMetaGCGRUCell: 3-22        [64, 207, 32]             --
├─Linear: 1-7                            [64, 207, 1]              (recursive)
├─ModuleList: 1-26                       --                        (recursive)
│    └─STMetaGCGRUDecoder: 2-15          [64, 207, 32]             (recursive)
│    │    └─STMetaGCGRUCell: 3-23        [64, 207, 32]             --
├─Linear: 1-9                            [64, 207, 1]              (recursive)
├─ModuleList: 1-26                       --                        (recursive)
│    └─STMetaGCGRUDecoder: 2-16          [64, 207, 32]             (recursive)
│    │    └─STMetaGCGRUCell: 3-24        [64, 207, 32]             --
├─Linear: 1-11                           [64, 207, 1]              (recursive)
├─ModuleList: 1-26                       --                        (recursive)
│    └─STMetaGCGRUDecoder: 2-17          [64, 207, 32]             (recursive)
│    │    └─STMetaGCGRUCell: 3-25        [64, 207, 32]             --
├─Linear: 1-13                           [64, 207, 1]              (recursive)
├─ModuleList: 1-26                       --                        (recursive)
│    └─STMetaGCGRUDecoder: 2-18          [64, 207, 32]             (recursive)
│    │    └─STMetaGCGRUCell: 3-26        [64, 207, 32]             --
├─Linear: 1-15                           [64, 207, 1]              (recursive)
├─ModuleList: 1-26                       --                        (recursive)
│    └─STMetaGCGRUDecoder: 2-19          [64, 207, 32]             (recursive)
│    │    └─STMetaGCGRUCell: 3-27        [64, 207, 32]             --
├─Linear: 1-17                           [64, 207, 1]              (recursive)
├─ModuleList: 1-26                       --                        (recursive)
│    └─STMetaGCGRUDecoder: 2-20          [64, 207, 32]             (recursive)
│    │    └─STMetaGCGRUCell: 3-28        [64, 207, 32]             --
├─Linear: 1-19                           [64, 207, 1]              (recursive)
├─ModuleList: 1-26                       --                        (recursive)
│    └─STMetaGCGRUDecoder: 2-21          [64, 207, 32]             (recursive)
│    │    └─STMetaGCGRUCell: 3-29        [64, 207, 32]             --
├─Linear: 1-21                           [64, 207, 1]              (recursive)
├─ModuleList: 1-26                       --                        (recursive)
│    └─STMetaGCGRUDecoder: 2-22          [64, 207, 32]             (recursive)
│    │    └─STMetaGCGRUCell: 3-30        [64, 207, 32]             --
├─Linear: 1-23                           [64, 207, 1]              (recursive)
├─ModuleList: 1-26                       --                        (recursive)
│    └─STMetaGCGRUDecoder: 2-23          [64, 207, 32]             (recursive)
│    │    └─STMetaGCGRUCell: 3-31        [64, 207, 32]             --
├─Linear: 1-25                           [64, 207, 1]              (recursive)
├─ModuleList: 1-26                       --                        (recursive)
│    └─STMetaGCGRUDecoder: 2-24          [64, 207, 32]             (recursive)
│    │    └─STMetaGCGRUCell: 3-32        [64, 207, 32]             --
├─Linear: 1-27                           [64, 207, 1]              (recursive)
==========================================================================================
Total params: 7,594,945
Trainable params: 7,594,945
Non-trainable params: 0
Total mult-adds (M): 324.18
==========================================================================================
Input size (MB): 1.91
Forward/backward pass size (MB): 4179.59
…
