…
        "T_miss_len": 12,
        "order": 3,
        "reference": 3,
        "time_slice_size": 5,
        "num_his": 12,
        "num_pred": 12,
        "in_channels": 1,
        "out_channels": 1,
        "bn_decay": 0.1,
        "device": "cuda:0"
    }
}
=========================================================================================================
Layer (type:depth-idx)                                  Output Shape              Param #
=========================================================================================================
STDN                                                    [32, 12, 1026, 1]         1,109,376
├─FC: 1-1                                               [32, 12, 1026, 96]        --
│    └─ModuleList: 2-1                                  --                        --
│    │    └─conv2d_: 3-1                                [32, 12, 1026, 96]        384
│    │    └─conv2d_: 3-2                                [32, 12, 1026, 96]        9,504
├─gcn: 1-2                                              [32, 12, 1026, 96]        --
│    └─nconv: 2-2                                       [32, 96, 1026, 12]        --
│    └─nconv: 2-3                                       [32, 96, 1026, 12]        --
│    └─nconv: 2-4                                       [32, 96, 1026, 12]        --
│    └─FC: 2-5                                          [32, 12, 1026, 96]        --
│    │    └─ModuleList: 3-3                             --                        37,152
├─SEmbedding: 1-3                                       [32, 12, 1026, 96]        --
│    └─Linear: 2-6                                      [1026, 32]                1,056
│    └─LayerNorm: 2-7                                   [1026, 32]                --
│    └─LeakyReLU: 2-8                                   [1026, 32]                --
│    └─Linear: 2-9                                      [1026, 96]                3,168
│    └─LayerNorm: 2-10                                  [1026, 96]                --
├─TEmbedding: 1-4                                       [32, 12, 1026, 96]        --
│    └─FC: 2-11                                         [32, 24, 1026, 96]        --
│    │    └─ModuleList: 3-4                             --                        47,616
├─Trend: 1-5                                            [32, 12, 1026, 96]        --
├─Seasonal: 1-6                                         [32, 12, 1026, 96]        --
├─FeedForward: 1-7                                      [32, 12, 1026, 96]        --
│    └─ModuleList: 2-12                                 --                        --
│    │    └─Linear: 3-5                                 [32, 12, 1026, 96]        9,312
│    └─LayerNorm: 2-13                                  [32, 12, 1026, 96]        --
├─FeedForward: 1-8                                      [32, 12, 1026, 96]        --
│    └─ModuleList: 2-14                                 --                        --
│    │    └─Linear: 3-6                                 [32, 12, 1026, 96]        9,312
│    └─LayerNorm: 2-15                                  [32, 12, 1026, 96]        --
├─GRUEncoder: 1-9                                       [32, 12, 1026, 96]        --
│    └─ModuleList: 2-16                                 --                        --
│    │    └─GRU: 3-7                                    [32, 1026, 96]            55,584
│    │    └─GRU: 3-8                                    [32, 1026, 96]            55,584
│    │    └─GRU: 3-9                                    [32, 1026, 96]            55,584
│    │    └─GRU: 3-10                                   [32, 1026, 96]            55,584
│    │    └─GRU: 3-11                                   [32, 1026, 96]            55,584
│    │    └─GRU: 3-12                                   [32, 1026, 96]            55,584
│    │    └─GRU: 3-13                                   [32, 1026, 96]            55,584
│    │    └─GRU: 3-14                                   [32, 1026, 96]            55,584
│    │    └─GRU: 3-15                                   [32, 1026, 96]            55,584
│    │    └─GRU: 3-16                                   [32, 1026, 96]            55,584
│    │    └─GRU: 3-17                                   [32, 1026, 96]            55,584
│    │    └─GRU: 3-18                                   [32, 1026, 96]            55,584
├─GRUEncoder: 1-10                                      [32, 12, 1026, 96]        --
│    └─ModuleList: 2-17                                 --                        --
│    │    └─GRU: 3-19                                   [32, 1026, 96]            55,584
│    │    └─GRU: 3-20                                   [32, 1026, 96]            55,584
│    │    └─GRU: 3-21                                   [32, 1026, 96]            55,584
│    │    └─GRU: 3-22                                   [32, 1026, 96]            55,584
│    │    └─GRU: 3-23                                   [32, 1026, 96]            55,584
│    │    └─GRU: 3-24                                   [32, 1026, 96]            55,584
│    │    └─GRU: 3-25                                   [32, 1026, 96]            55,584
│    │    └─GRU: 3-26                                   [32, 1026, 96]            55,584
│    │    └─GRU: 3-27                                   [32, 1026, 96]            55,584
│    │    └─GRU: 3-28                                   [32, 1026, 96]            55,584
│    │    └─GRU: 3-29                                   [32, 1026, 96]            55,584
│    │    └─GRU: 3-30                                   [32, 1026, 96]            55,584
├─ModuleList: 1-11                                      --                        --
│    └─AttentionDecoder: 2-18                           [32, 12, 1026, 96]        886,464
│    │    └─MAB_new: 3-31                               [32, 3, 1026, 288]        112,320
│    │    └─MAB_new: 3-32                               [32, 12, 1026, 96]        93,312
│    └─AttentionDecoder: 2-19                           [32, 12, 1026, 96]        886,464
│    │    └─MAB_new: 3-33                               [32, 3, 1026, 288]        112,320
│    │    └─MAB_new: 3-34                               [32, 12, 1026, 96]        93,312
├─FC: 1-12                                              [32, 12, 1026, 1]         --
│    └─ModuleList: 2-20                                 --                        --
│    │    └─conv2d_: 3-35                               [32, 12, 1026, 96]        9,504
│    │    └─conv2d_: 3-36                               [32, 12, 1026, 1]         99
=========================================================================================================
Total params: 4,754,691
Trainable params: 4,754,691
Non-trainable params: 0
Total mult-adds (G): 153.95
=========================================================================================================
Input size (MB): 7.88
Forward/backward pass size (MB): 15136.34
Params size (MB): 7.49
…
