…
        "T_miss_len": 12,
        "order": 3,
        "reference": 3,
        "time_slice_size": 5,
        "num_his": 12,
        "num_pred": 12,
        "in_channels": 1,
        "out_channels": 1,
        "bn_decay": 0.1,
        "device": "cuda:0"
    }
}
=========================================================================================================
Layer (type:depth-idx)                                  Output Shape              Param #
=========================================================================================================
STDN                                                    [64, 12, 325, 1]          2,217,216
├─FC: 1-1                                               [64, 12, 325, 128]        --
│    └─ModuleList: 2-1                                  --                        --
│    │    └─conv2d_: 3-1                                [64, 12, 325, 128]        512
│    │    └─conv2d_: 3-2                                [64, 12, 325, 128]        16,768
├─gcn: 1-2                                              [64, 12, 325, 128]        --
│    └─nconv: 2-2                                       [64, 128, 325, 12]        --
│    └─nconv: 2-3                                       [64, 128, 325, 12]        --
│    └─nconv: 2-4                                       [64, 128, 325, 12]        --
│    └─FC: 2-5                                          [64, 12, 325, 128]        --
│    │    └─ModuleList: 3-3                             --                        65,920
├─SEmbedding: 1-3                                       [64, 12, 325, 128]        --
│    └─Linear: 2-6                                      [325, 32]                 1,056
│    └─LayerNorm: 2-7                                   [325, 32]                 --
│    └─LeakyReLU: 2-8                                   [325, 32]                 --
│    └─Linear: 2-9                                      [325, 128]                4,224
│    └─LayerNorm: 2-10                                  [325, 128]                --
├─TEmbedding: 1-4                                       [64, 12, 325, 128]        --
│    └─FC: 2-11                                         [64, 24, 325, 128]        --
│    │    └─ModuleList: 3-4                             --                        71,680
├─Trend: 1-5                                            [64, 12, 325, 128]        --
├─Seasonal: 1-6                                         [64, 12, 325, 128]        --
├─FeedForward: 1-7                                      [64, 12, 325, 128]        --
│    └─ModuleList: 2-12                                 --                        --
│    │    └─Linear: 3-5                                 [64, 12, 325, 128]        16,512
│    └─LayerNorm: 2-13                                  [64, 12, 325, 128]        --
├─FeedForward: 1-8                                      [64, 12, 325, 128]        --
│    └─ModuleList: 2-14                                 --                        --
│    │    └─Linear: 3-6                                 [64, 12, 325, 128]        16,512
│    └─LayerNorm: 2-15                                  [64, 12, 325, 128]        --
├─GRUEncoder: 1-9                                       [64, 12, 325, 128]        --
│    └─ModuleList: 2-16                                 --                        --
│    │    └─GRU: 3-7                                    [64, 325, 128]            98,688
│    │    └─GRU: 3-8                                    [64, 325, 128]            98,688
│    │    └─GRU: 3-9                                    [64, 325, 128]            98,688
│    │    └─GRU: 3-10                                   [64, 325, 128]            98,688
│    │    └─GRU: 3-11                                   [64, 325, 128]            98,688
│    │    └─GRU: 3-12                                   [64, 325, 128]            98,688
│    │    └─GRU: 3-13                                   [64, 325, 128]            98,688
│    │    └─GRU: 3-14                                   [64, 325, 128]            98,688
│    │    └─GRU: 3-15                                   [64, 325, 128]            98,688
│    │    └─GRU: 3-16                                   [64, 325, 128]            98,688
│    │    └─GRU: 3-17                                   [64, 325, 128]            98,688
│    │    └─GRU: 3-18                                   [64, 325, 128]            98,688
├─GRUEncoder: 1-10                                      [64, 12, 325, 128]        --
│    └─ModuleList: 2-17                                 --                        --
│    │    └─GRU: 3-19                                   [64, 325, 128]            98,688
│    │    └─GRU: 3-20                                   [64, 325, 128]            98,688
│    │    └─GRU: 3-21                                   [64, 325, 128]            98,688
│    │    └─GRU: 3-22                                   [64, 325, 128]            98,688
│    │    └─GRU: 3-23                                   [64, 325, 128]            98,688
│    │    └─GRU: 3-24                                   [64, 325, 128]            98,688
│    │    └─GRU: 3-25                                   [64, 325, 128]            98,688
│    │    └─GRU: 3-26                                   [64, 325, 128]            98,688
│    │    └─GRU: 3-27                                   [64, 325, 128]            98,688
│    │    └─GRU: 3-28                                   [64, 325, 128]            98,688
│    │    └─GRU: 3-29                                   [64, 325, 128]            98,688
│    │    └─GRU: 3-30                                   [64, 325, 128]            98,688
├─ModuleList: 1-11                                      --                        --
│    └─AttentionDecoder: 2-18                           [64, 12, 325, 128]        374,400
│    │    └─MAB_new: 3-31                               [64, 3, 325, 384]         198,912
│    │    └─MAB_new: 3-32                               [64, 12, 325, 128]        165,376
│    └─AttentionDecoder: 2-19                           [64, 12, 325, 128]        374,400
│    │    └─MAB_new: 3-33                               [64, 3, 325, 384]         198,912
│    │    └─MAB_new: 3-34                               [64, 12, 325, 128]        165,376
├─FC: 1-12                                              [64, 12, 325, 1]          --
│    └─ModuleList: 2-20                                 --                        --
│    │    └─conv2d_: 3-35                               [64, 12, 325, 128]        16,768
│    │    └─conv2d_: 3-36                               [64, 12, 325, 1]          131
=========================================================================================================
Total params: 6,273,187
Trainable params: 6,273,187
Non-trainable params: 0
Total mult-adds (G): 166.96
=========================================================================================================
Input size (MB): 4.99
Forward/backward pass size (MB): 12783.93
Params size (MB): 13.23
…
