…
        "dow_embedding_dim": 7,
        "node_embedding_dim": 64,
        "learner_hidden_dim": 64,
        "z_dim": 32,
        "feed_forward_dim": 128,
        "num_heads": 4,
        "num_layers": 3,
        "dropout": 0.1,
        "with_spatial": true,
        "device": "cuda:0"
    }
}
===============================================================================================
Layer (type:depth-idx)                        Output Shape              Param #
===============================================================================================
STMetaAttention                               [64, 12, 207, 1]          13,248
├─Linear: 1-1                                 [64, 12, 207, 32]         64
├─Sequential: 1-2                             [64, 207, 32]             --
│    └─Linear: 2-1                            [64, 207, 32]             416
│    └─Tanh: 2-2                              [64, 207, 32]             --
│    └─Linear: 2-3                            [64, 207, 32]             1,056
│    └─Tanh: 2-4                              [64, 207, 32]             --
│    └─Linear: 2-5                            [64, 207, 32]             1,056
├─Sequential: 1-3                             [64, 207, 32]             --
│    └─Linear: 2-6                            [64, 207, 32]             416
│    └─Tanh: 2-7                              [64, 207, 32]             --
│    └─Linear: 2-8                            [64, 207, 32]             1,056
│    └─Tanh: 2-9                              [64, 207, 32]             --
│    └─Linear: 2-10                           [64, 207, 32]             1,056
├─ModuleList: 1-4                             --                        --
│    └─STMetaSelfAttentionLayer: 2-11         [64, 12, 207, 32]         --
│    │    └─Sequential: 3-1                   [64, 207, 3072]           207,872
│    │    └─Sequential: 3-2                   [64, 207, 96]             14,432
│    │    └─STMetaAttentionLayer: 3-3         [64, 207, 12, 32]         1,056
│    │    └─Dropout: 3-4                      [64, 207, 12, 32]         --
│    │    └─LayerNorm: 3-5                    [64, 207, 12, 32]         64
│    │    └─Sequential: 3-6                   [64, 207, 12, 32]         8,352
│    │    └─Dropout: 3-7                      [64, 207, 12, 32]         --
│    │    └─LayerNorm: 3-8                    [64, 207, 12, 32]         64
│    └─STMetaSelfAttentionLayer: 2-12         [64, 12, 207, 32]         --
│    │    └─Sequential: 3-9                   [64, 207, 3072]           207,872
│    │    └─Sequential: 3-10                  [64, 207, 96]             14,432
│    │    └─STMetaAttentionLayer: 3-11        [64, 207, 12, 32]         1,056
│    │    └─Dropout: 3-12                     [64, 207, 12, 32]         --
│    │    └─LayerNorm: 3-13                   [64, 207, 12, 32]         64
│    │    └─Sequential: 3-14                  [64, 207, 12, 32]         8,352
│    │    └─Dropout: 3-15                     [64, 207, 12, 32]         --
│    │    └─LayerNorm: 3-16                   [64, 207, 12, 32]         64
│    └─STMetaSelfAttentionLayer: 2-13         [64, 12, 207, 32]         --
│    │    └─Sequential: 3-17                  [64, 207, 3072]           207,872
│    │    └─Sequential: 3-18                  [64, 207, 96]             14,432
│    │    └─STMetaAttentionLayer: 3-19        [64, 207, 12, 32]         1,056
│    │    └─Dropout: 3-20                     [64, 207, 12, 32]         --
│    │    └─LayerNorm: 3-21                   [64, 207, 12, 32]         64
│    │    └─Sequential: 3-22                  [64, 207, 12, 32]         8,352
│    │    └─Dropout: 3-23                     [64, 207, 12, 32]         --
│    │    └─LayerNorm: 3-24                   [64, 207, 12, 32]         64
├─ModuleList: 1-5                             --                        --
│    └─STMetaSelfAttentionLayer: 2-14         [64, 12, 207, 32]         --
│    │    └─Sequential: 3-25                  [64, 207, 3072]           207,872
│    │    └─Sequential: 3-26                  [64, 207, 96]             14,432
│    │    └─STMetaAttentionLayer: 3-27        [64, 207, 12, 32]         1,056
│    │    └─Dropout: 3-28                     [64, 207, 12, 32]         --
│    │    └─LayerNorm: 3-29                   [64, 207, 12, 32]         64
│    │    └─Sequential: 3-30                  [64, 207, 12, 32]         8,352
│    │    └─Dropout: 3-31                     [64, 207, 12, 32]         --
│    │    └─LayerNorm: 3-32                   [64, 207, 12, 32]         64
│    └─STMetaSelfAttentionLayer: 2-15         [64, 12, 207, 32]         --
│    │    └─Sequential: 3-33                  [64, 207, 3072]           207,872
│    │    └─Sequential: 3-34                  [64, 207, 96]             14,432
│    │    └─STMetaAttentionLayer: 3-35        [64, 207, 12, 32]         1,056
│    │    └─Dropout: 3-36                     [64, 207, 12, 32]         --
│    │    └─LayerNorm: 3-37                   [64, 207, 12, 32]         64
│    │    └─Sequential: 3-38                  [64, 207, 12, 32]         8,352
│    │    └─Dropout: 3-39                     [64, 207, 12, 32]         --
│    │    └─LayerNorm: 3-40                   [64, 207, 12, 32]         64
│    └─STMetaSelfAttentionLayer: 2-16         [64, 12, 207, 32]         --
│    │    └─Sequential: 3-41                  [64, 207, 3072]           207,872
│    │    └─Sequential: 3-42                  [64, 207, 96]             14,432
│    │    └─STMetaAttentionLayer: 3-43        [64, 207, 12, 32]         1,056
│    │    └─Dropout: 3-44                     [64, 207, 12, 32]         --
│    │    └─LayerNorm: 3-45                   [64, 207, 12, 32]         64
│    │    └─Sequential: 3-46                  [64, 207, 12, 32]         8,352
│    │    └─Dropout: 3-47                     [64, 207, 12, 32]         --
│    │    └─LayerNorm: 3-48                   [64, 207, 12, 32]         64
├─Linear: 1-6                                 [64, 32, 207, 12]         156
├─Linear: 1-7                                 [64, 12, 207, 1]          33
===============================================================================================
Total params: 1,409,597
Trainable params: 1,409,597
Non-trainable params: 0
Total mult-adds (M): 89.37
===============================================================================================
Input size (MB): 1.91
Forward/backward pass size (MB): 4152.45
Params size (MB): 5.59
Estimated Total Size (MB): 4159.95
…
