…
        "dow_embedding_dim": 7,
        "node_embedding_dim": 64,
        "learner_hidden_dim": 128,
        "z_dim": 32,
        "feed_forward_dim": 128,
        "num_heads": 4,
        "num_layers": 1,
        "dropout": 0.1,
        "with_spatial": true,
        "device": "cuda:0"
    }
}
===============================================================================================
Layer (type:depth-idx)                        Output Shape              Param #
===============================================================================================
STMetaAttention                               [64, 12, 207, 1]          13,248
├─Linear: 1-1                                 [64, 12, 207, 32]         64
├─Sequential: 1-2                             [64, 207, 32]             --
│    └─Linear: 2-1                            [64, 207, 32]             416
│    └─Tanh: 2-2                              [64, 207, 32]             --
│    └─Linear: 2-3                            [64, 207, 32]             1,056
│    └─Tanh: 2-4                              [64, 207, 32]             --
│    └─Linear: 2-5                            [64, 207, 32]             1,056
├─Sequential: 1-3                             [64, 207, 32]             --
│    └─Linear: 2-6                            [64, 207, 32]             416
│    └─Tanh: 2-7                              [64, 207, 32]             --
│    └─Linear: 2-8                            [64, 207, 32]             1,056
│    └─Tanh: 2-9                              [64, 207, 32]             --
│    └─Linear: 2-10                           [64, 207, 32]             1,056
├─ModuleList: 1-4                             --                        --
│    └─STMetaSelfAttentionLayer: 2-11         [64, 12, 207, 32]         --
│    │    └─Sequential: 3-1                   [64, 207, 3072]           412,672
│    │    └─Sequential: 3-2                   [64, 207, 96]             28,768
│    │    └─STMetaAttentionLayer: 3-3         [64, 207, 12, 32]         1,056
│    │    └─Dropout: 3-4                      [64, 207, 12, 32]         --
│    │    └─LayerNorm: 3-5                    [64, 207, 12, 32]         64
│    │    └─Sequential: 3-6                   [64, 207, 12, 32]         8,352
│    │    └─Dropout: 3-7                      [64, 207, 12, 32]         --
│    │    └─LayerNorm: 3-8                    [64, 207, 12, 32]         64
├─ModuleList: 1-5                             --                        --
│    └─STMetaSelfAttentionLayer: 2-12         [64, 12, 207, 32]         --
│    │    └─Sequential: 3-9                   [64, 207, 3072]           412,672
│    │    └─Sequential: 3-10                  [64, 207, 96]             28,768
│    │    └─STMetaAttentionLayer: 3-11        [64, 207, 12, 32]         1,056
│    │    └─Dropout: 3-12                     [64, 207, 12, 32]         --
│    │    └─LayerNorm: 3-13                   [64, 207, 12, 32]         64
│    │    └─Sequential: 3-14                  [64, 207, 12, 32]         8,352
│    │    └─Dropout: 3-15                     [64, 207, 12, 32]         --
│    │    └─LayerNorm: 3-16                   [64, 207, 12, 32]         64
├─Linear: 1-6                                 [64, 32, 207, 12]         156
├─Linear: 1-7                                 [64, 12, 207, 1]          33
===============================================================================================
Total params: 920,509
Trainable params: 920,509
Non-trainable params: 0
Total mult-adds (M): 58.06
===============================================================================================
Input size (MB): 1.91
Forward/backward pass size (MB): 1479.96
Params size (MB): 3.63
Estimated Total Size (MB): 1485.50
…
