…
        "steps_per_day": 24,
        "input_dim": 3,
        "output_dim": 1,
        "input_embedding_dim": 24,
        "tod_embedding_dim": 24,
        "dow_embedding_dim": 24,
        "adaptive_embedding_dim": 80,
        "feed_forward_dim": 256,
        "num_heads": 4,
        "num_layers": 1,
        "dropout": 0.1
    }
}
==========================================================================================
Layer (type:depth-idx)                   Output Shape              Param #
==========================================================================================
STAEformer                               [16, 336, 321, 1]         2,465,280
├─Linear: 1-1                            [16, 96, 321, 24]         96
├─Embedding: 1-2                         [16, 96, 321, 24]         576
├─Embedding: 1-3                         [16, 96, 321, 24]         168
├─ModuleList: 1-4                        --                        --
│    └─SelfAttentionLayer: 2-1           [16, 96, 321, 152]        --
│    │    └─AttentionLayer: 3-1          [16, 321, 96, 152]        93,024
│    │    └─Dropout: 3-2                 [16, 321, 96, 152]        --
│    │    └─LayerNorm: 3-3               [16, 321, 96, 152]        304
│    │    └─Sequential: 3-4              [16, 321, 96, 152]        78,232
│    │    └─Dropout: 3-5                 [16, 321, 96, 152]        --
│    │    └─LayerNorm: 3-6               [16, 321, 96, 152]        304
├─ModuleList: 1-5                        --                        --
│    └─SelfAttentionLayer: 2-2           [16, 96, 321, 152]        --
│    │    └─AttentionLayer: 3-7          [16, 96, 321, 152]        93,024
│    │    └─Dropout: 3-8                 [16, 96, 321, 152]        --
│    │    └─LayerNorm: 3-9               [16, 96, 321, 152]        304
│    │    └─Sequential: 3-10             [16, 96, 321, 152]        78,232
│    │    └─Dropout: 3-11                [16, 96, 321, 152]        --
│    │    └─LayerNorm: 3-12              [16, 96, 321, 152]        304
├─Linear: 1-6                            [16, 321, 336]            4,903,248
==========================================================================================
Total params: 7,713,096
Trainable params: 7,713,096
Non-trainable params: 0
Total mult-adds (M): 83.97
==========================================================================================
Input size (MB): 5.92
Forward/backward pass size (MB): 10711.15
Params size (MB): 20.99
Estimated Total Size (MB): 10738.06
…
