…
        "days_per_week": 5,
        "input_dim": 3,
        "output_dim": 1,
        "input_embedding_dim": 24,
        "tod_embedding_dim": 24,
        "dow_embedding_dim": 24,
        "adaptive_embedding_dim": 80,
        "feed_forward_dim": 256,
        "num_heads": 4,
        "num_layers": 3,
        "dropout": 0.1
    }
}
==========================================================================================
Layer (type:depth-idx)                   Output Shape              Param #
==========================================================================================
STAEformer                               [16, 12, 1026, 1]         984,960
├─Linear: 1-1                            [16, 12, 1026, 24]        96
├─Embedding: 1-2                         [16, 12, 1026, 24]        6,912
├─Embedding: 1-3                         [16, 12, 1026, 24]        120
├─ModuleList: 1-4                        --                        --
│    └─SelfAttentionLayer: 2-1           [16, 12, 1026, 152]       --
│    │    └─AttentionLayer: 3-1          [16, 1026, 12, 152]       93,024
│    │    └─Dropout: 3-2                 [16, 1026, 12, 152]       --
│    │    └─LayerNorm: 3-3               [16, 1026, 12, 152]       304
│    │    └─Sequential: 3-4              [16, 1026, 12, 152]       78,232
│    │    └─Dropout: 3-5                 [16, 1026, 12, 152]       --
│    │    └─LayerNorm: 3-6               [16, 1026, 12, 152]       304
│    └─SelfAttentionLayer: 2-2           [16, 12, 1026, 152]       --
│    │    └─AttentionLayer: 3-7          [16, 1026, 12, 152]       93,024
│    │    └─Dropout: 3-8                 [16, 1026, 12, 152]       --
│    │    └─LayerNorm: 3-9               [16, 1026, 12, 152]       304
│    │    └─Sequential: 3-10             [16, 1026, 12, 152]       78,232
│    │    └─Dropout: 3-11                [16, 1026, 12, 152]       --
│    │    └─LayerNorm: 3-12              [16, 1026, 12, 152]       304
│    └─SelfAttentionLayer: 2-3           [16, 12, 1026, 152]       --
│    │    └─AttentionLayer: 3-13         [16, 1026, 12, 152]       93,024
│    │    └─Dropout: 3-14                [16, 1026, 12, 152]       --
│    │    └─LayerNorm: 3-15              [16, 1026, 12, 152]       304
│    │    └─Sequential: 3-16             [16, 1026, 12, 152]       78,232
│    │    └─Dropout: 3-17                [16, 1026, 12, 152]       --
│    │    └─LayerNorm: 3-18              [16, 1026, 12, 152]       304
├─ModuleList: 1-5                        --                        --
│    └─SelfAttentionLayer: 2-4           [16, 12, 1026, 152]       --
│    │    └─AttentionLayer: 3-19         [16, 12, 1026, 152]       93,024
│    │    └─Dropout: 3-20                [16, 12, 1026, 152]       --
│    │    └─LayerNorm: 3-21              [16, 12, 1026, 152]       304
│    │    └─Sequential: 3-22             [16, 12, 1026, 152]       78,232
│    │    └─Dropout: 3-23                [16, 12, 1026, 152]       --
│    │    └─LayerNorm: 3-24              [16, 12, 1026, 152]       304
│    └─SelfAttentionLayer: 2-5           [16, 12, 1026, 152]       --
│    │    └─AttentionLayer: 3-25         [16, 12, 1026, 152]       93,024
│    │    └─Dropout: 3-26                [16, 12, 1026, 152]       --
│    │    └─LayerNorm: 3-27              [16, 12, 1026, 152]       304
│    │    └─Sequential: 3-28             [16, 12, 1026, 152]       78,232
│    │    └─Dropout: 3-29                [16, 12, 1026, 152]       --
│    │    └─LayerNorm: 3-30              [16, 12, 1026, 152]       304
│    └─SelfAttentionLayer: 2-6           [16, 12, 1026, 152]       --
│    │    └─AttentionLayer: 3-31         [16, 12, 1026, 152]       93,024
│    │    └─Dropout: 3-32                [16, 12, 1026, 152]       --
│    │    └─LayerNorm: 3-33              [16, 12, 1026, 152]       304
│    │    └─Sequential: 3-34             [16, 12, 1026, 152]       78,232
│    │    └─Dropout: 3-35                [16, 12, 1026, 152]       --
│    │    └─LayerNorm: 3-36              [16, 12, 1026, 152]       304
├─Linear: 1-6                            [16, 1026, 12]            21,900
==========================================================================================
Total params: 2,045,172
Trainable params: 2,045,172
Non-trainable params: 0
Total mult-adds (M): 16.96
==========================================================================================
Input size (MB): 2.36
Forward/backward pass size (MB): 12596.46
Params size (MB): 4.24
Estimated Total Size (MB): 12603.06
…
