…
        "output_dim": 1,
        "input_embedding_dim": 16,
        "tod_embedding_dim": 12,
        "dow_embedding_dim": 12,
        "spatial_embedding_dim": 0,
        "adaptive_embedding_dim": 60,
        "feed_forward_dim": 128,
        "num_heads": 4,
        "num_layers": 3,
        "dropout": 0.1
    }
}
==========================================================================================
Layer (type:depth-idx)                   Output Shape              Param #
==========================================================================================
TDA_AAM                                  [16, 12, 358, 1]          257,760
├─Linear: 1-1                            [16, 12, 358, 16]         32
├─Embedding: 1-2                         [16, 12, 358, 12]         3,456
├─Embedding: 1-3                         [16, 12, 358, 12]         84
├─ModuleList: 1-4                        --                        --
│    └─SelfAttentionLayer: 2-1           [16, 12, 358, 100]        --
│    │    └─AttentionLayer: 3-1          [16, 358, 12, 100]        40,400
│    │    └─Dropout: 3-2                 [16, 358, 12, 100]        --
│    │    └─LayerNorm: 3-3               [16, 358, 12, 100]        200
│    │    └─Sequential: 3-4              [16, 358, 12, 100]        25,828
│    │    └─Dropout: 3-5                 [16, 358, 12, 100]        --
│    │    └─LayerNorm: 3-6               [16, 358, 12, 100]        200
│    └─SelfAttentionLayer: 2-2           [16, 12, 358, 100]        --
│    │    └─AttentionLayer: 3-7          [16, 358, 12, 100]        40,400
│    │    └─Dropout: 3-8                 [16, 358, 12, 100]        --
│    │    └─LayerNorm: 3-9               [16, 358, 12, 100]        200
│    │    └─Sequential: 3-10             [16, 358, 12, 100]        25,828
│    │    └─Dropout: 3-11                [16, 358, 12, 100]        --
│    │    └─LayerNorm: 3-12              [16, 358, 12, 100]        200
│    └─SelfAttentionLayer: 2-3           [16, 12, 358, 100]        --
│    │    └─AttentionLayer: 3-13         [16, 358, 12, 100]        40,400
│    │    └─Dropout: 3-14                [16, 358, 12, 100]        --
│    │    └─LayerNorm: 3-15              [16, 358, 12, 100]        200
│    │    └─Sequential: 3-16             [16, 358, 12, 100]        25,828
│    │    └─Dropout: 3-17                [16, 358, 12, 100]        --
│    │    └─LayerNorm: 3-18              [16, 358, 12, 100]        200
├─ModuleList: 1-5                        --                        --
│    └─SelfAttentionLayer: 2-4           [16, 12, 358, 100]        --
│    │    └─AttentionLayer: 3-19         [16, 12, 358, 100]        40,400
│    │    └─Dropout: 3-20                [16, 12, 358, 100]        --
│    │    └─LayerNorm: 3-21              [16, 12, 358, 100]        200
│    │    └─Sequential: 3-22             [16, 12, 358, 100]        25,828
│    │    └─Dropout: 3-23                [16, 12, 358, 100]        --
│    │    └─LayerNorm: 3-24              [16, 12, 358, 100]        200
│    └─SelfAttentionLayer: 2-5           [16, 12, 358, 100]        --
│    │    └─AttentionLayer: 3-25         [16, 12, 358, 100]        40,400
│    │    └─Dropout: 3-26                [16, 12, 358, 100]        --
│    │    └─LayerNorm: 3-27              [16, 12, 358, 100]        200
│    │    └─Sequential: 3-28             [16, 12, 358, 100]        25,828
│    │    └─Dropout: 3-29                [16, 12, 358, 100]        --
│    │    └─LayerNorm: 3-30              [16, 12, 358, 100]        200
│    └─SelfAttentionLayer: 2-6           [16, 12, 358, 100]        --
│    │    └─AttentionLayer: 3-31         [16, 12, 358, 100]        40,400
│    │    └─Dropout: 3-32                [16, 12, 358, 100]        --
│    │    └─LayerNorm: 3-33              [16, 12, 358, 100]        200
│    │    └─Sequential: 3-34             [16, 12, 358, 100]        25,828
│    │    └─Dropout: 3-35                [16, 12, 358, 100]        --
│    │    └─LayerNorm: 3-36              [16, 12, 358, 100]        200
├─Linear: 1-6                            [16, 358, 12]             14,412
==========================================================================================
Total params: 675,512
Trainable params: 675,512
Non-trainable params: 0
Total mult-adds (M): 6.68
==========================================================================================
Input size (MB): 0.82
Forward/backward pass size (MB): 2754.39
Params size (MB): 1.67
Estimated Total Size (MB): 2756.88
…
