…
        "output_dim": 1,
        "input_embedding_dim": 12,
        "tod_embedding_dim": 12,
        "dow_embedding_dim": 12,
        "adaptive_embedding_dim": 72,
        "feed_forward_dim": 256,
        "num_heads": 4,
        "num_layers": 3
    }
}
==========================================================================================
Layer (type:depth-idx)                   Output Shape              Param #
==========================================================================================
STAttention                              --                        --
├─Linear: 1-1                            [64, 12, 207, 12]         24
├─Embedding: 1-2                         [64, 12, 207, 12]         3,456
├─Embedding: 1-3                         [64, 12, 207, 12]         84
├─Sequential: 1-4                        [64, 207, 12, 108]        --
│    └─SelfAttentionLayer: 2-1           [64, 207, 12, 108]        --
│    │    └─AttentionLayer: 3-1          [64, 207, 12, 108]        47,088
│    │    └─LayerNorm: 3-2               [64, 207, 12, 108]        216
│    │    └─Sequential: 3-3              [64, 207, 12, 108]        55,660
│    │    └─LayerNorm: 3-4               [64, 207, 12, 108]        216
│    └─SelfAttentionLayer: 2-2           [64, 207, 12, 108]        --
│    │    └─AttentionLayer: 3-5          [64, 207, 12, 108]        47,088
│    │    └─LayerNorm: 3-6               [64, 207, 12, 108]        216
│    │    └─Sequential: 3-7              [64, 207, 12, 108]        55,660
│    │    └─LayerNorm: 3-8               [64, 207, 12, 108]        216
│    └─SelfAttentionLayer: 2-3           [64, 207, 12, 108]        --
│    │    └─AttentionLayer: 3-9          [64, 207, 12, 108]        47,088
│    │    └─LayerNorm: 3-10              [64, 207, 12, 108]        216
│    │    └─Sequential: 3-11             [64, 207, 12, 108]        55,660
│    │    └─LayerNorm: 3-12              [64, 207, 12, 108]        216
├─Sequential: 1-5                        [64, 12, 207, 108]        --
│    └─SelfAttentionLayer: 2-4           [64, 12, 207, 108]        --
│    │    └─AttentionLayer: 3-13         [64, 12, 207, 108]        47,088
│    │    └─LayerNorm: 3-14              [64, 12, 207, 108]        216
│    │    └─Sequential: 3-15             [64, 12, 207, 108]        55,660
│    │    └─LayerNorm: 3-16              [64, 12, 207, 108]        216
│    └─SelfAttentionLayer: 2-5           [64, 12, 207, 108]        --
│    │    └─AttentionLayer: 3-17         [64, 12, 207, 108]        47,088
│    │    └─LayerNorm: 3-18              [64, 12, 207, 108]        216
│    │    └─Sequential: 3-19             [64, 12, 207, 108]        55,660
│    │    └─LayerNorm: 3-20              [64, 12, 207, 108]        216
│    └─SelfAttentionLayer: 2-6           [64, 12, 207, 108]        --
│    │    └─AttentionLayer: 3-21         [64, 12, 207, 108]        47,088
│    │    └─LayerNorm: 3-22              [64, 12, 207, 108]        216
│    │    └─Sequential: 3-23             [64, 12, 207, 108]        55,660
│    │    └─LayerNorm: 3-24              [64, 12, 207, 108]        216
├─Linear: 1-6                            [64, 108, 207, 12]        156
├─Linear: 1-7                            [64, 12, 207, 1]          109
==========================================================================================
Total params: 622,909
Trainable params: 622,909
Non-trainable params: 0
Total mult-adds (M): 39.87
==========================================================================================
Input size (MB): 1.91
Forward/backward pass size (MB): 7906.83
Params size (MB): 2.49
Estimated Total Size (MB): 7911.23
…
