…
        "adaptive_embedding_dim": 16,
        "feed_forward_dim": 256,
        "num_heads": 4,
        "num_layers": 3
    }
}
==========================================================================================
Layer (type:depth-idx)                   Output Shape              Param #
==========================================================================================
STAttention                              --                        --
├─ModuleList: 1-1                        --                        --
├─ModuleList: 1-2                        --                        --
├─Linear: 1-3                            [64, 12, 207, 16]         32
├─Embedding: 1-4                         [64, 12, 207, 16]         4,608
├─Embedding: 1-5                         [64, 12, 207, 16]         112
├─ModuleList: 1-1                        --                        --
│    └─SelfAttentionLayer: 2-1           [64, 12, 207, 64]         --
│    │    └─AttentionLayer: 3-1          [64, 207, 12, 64]         16,640
│    │    └─LayerNorm: 3-2               [64, 207, 12, 64]         128
│    │    └─Sequential: 3-3              [64, 207, 12, 64]         33,088
│    │    └─LayerNorm: 3-4               [64, 207, 12, 64]         128
│    └─SelfAttentionLayer: 2-2           [64, 12, 207, 64]         --
│    │    └─AttentionLayer: 3-5          [64, 207, 12, 64]         16,640
│    │    └─LayerNorm: 3-6               [64, 207, 12, 64]         128
│    │    └─Sequential: 3-7              [64, 207, 12, 64]         33,088
│    │    └─LayerNorm: 3-8               [64, 207, 12, 64]         128
│    └─SelfAttentionLayer: 2-3           [64, 12, 207, 64]         --
│    │    └─AttentionLayer: 3-9          [64, 207, 12, 64]         16,640
│    │    └─LayerNorm: 3-10              [64, 207, 12, 64]         128
│    │    └─Sequential: 3-11             [64, 207, 12, 64]         33,088
│    │    └─LayerNorm: 3-12              [64, 207, 12, 64]         128
├─ModuleList: 1-2                        --                        --
│    └─SelfAttentionLayer: 2-4           [64, 12, 207, 64]         --
│    │    └─AttentionLayer: 3-13         [64, 12, 207, 64]         16,640
│    │    └─LayerNorm: 3-14              [64, 12, 207, 64]         128
│    │    └─Sequential: 3-15             [64, 12, 207, 64]         33,088
│    │    └─LayerNorm: 3-16              [64, 12, 207, 64]         128
│    └─SelfAttentionLayer: 2-5           [64, 12, 207, 64]         --
│    │    └─AttentionLayer: 3-17         [64, 12, 207, 64]         16,640
│    │    └─LayerNorm: 3-18              [64, 12, 207, 64]         128
│    │    └─Sequential: 3-19             [64, 12, 207, 64]         33,088
│    │    └─LayerNorm: 3-20              [64, 12, 207, 64]         128
│    └─SelfAttentionLayer: 2-6           [64, 12, 207, 64]         --
│    │    └─AttentionLayer: 3-21         [64, 12, 207, 64]         16,640
│    │    └─LayerNorm: 3-22              [64, 12, 207, 64]         128
│    │    └─Sequential: 3-23             [64, 12, 207, 64]         33,088
│    │    └─LayerNorm: 3-24              [64, 12, 207, 64]         128
├─Linear: 1-6                            [64, 64, 207, 12]         156
├─Linear: 1-7                            [64, 12, 207, 1]          65
==========================================================================================
Total params: 304,877
Trainable params: 304,877
Non-trainable params: 0
Total mult-adds (M): 19.51
==========================================================================================
Input size (MB): 1.91
Forward/backward pass size (MB): 5515.83
Params size (MB): 1.22
Estimated Total Size (MB): 5518.96
…
