…
        "feed_forward_dim": 256,
        "num_heads": 4,
        "num_layers": 1,
        "dropout": 0
    }
}
==========================================================================================
Layer (type:depth-idx)                   Output Shape              Param #
==========================================================================================
STAttention                              --                        --
├─ModuleList: 1-1                        --                        --
├─ModuleList: 1-2                        --                        --
├─Linear: 1-3                            [64, 12, 207, 12]         24
├─Embedding: 1-4                         [64, 12, 207, 12]         3,456
├─Embedding: 1-5                         [64, 12, 207, 12]         84
├─ModuleList: 1-1                        --                        --
│    └─SelfAttentionLayer: 2-1           [64, 12, 207, 96]         --
│    │    └─AttentionLayer: 3-1          [64, 207, 12, 96]         37,248
│    │    └─Dropout: 3-2                 [64, 207, 12, 96]         --
│    │    └─LayerNorm: 3-3               [64, 207, 12, 96]         192
│    │    └─Sequential: 3-4              [64, 207, 12, 96]         49,504
│    │    └─Dropout: 3-5                 [64, 207, 12, 96]         --
│    │    └─LayerNorm: 3-6               [64, 207, 12, 96]         192
├─ModuleList: 1-2                        --                        --
│    └─SelfAttentionLayer: 2-2           [64, 12, 207, 96]         --
│    │    └─AttentionLayer: 3-7          [64, 12, 207, 96]         37,248
│    │    └─Dropout: 3-8                 [64, 12, 207, 96]         --
│    │    └─LayerNorm: 3-9               [64, 12, 207, 96]         192
│    │    └─Sequential: 3-10             [64, 12, 207, 96]         49,504
│    │    └─Dropout: 3-11                [64, 12, 207, 96]         --
│    │    └─LayerNorm: 3-12              [64, 12, 207, 96]         192
├─Linear: 1-6                            [64, 96, 207, 12]         156
├─Linear: 1-7                            [64, 12, 207, 1]          97
==========================================================================================
Total params: 178,089
Trainable params: 178,089
Non-trainable params: 0
Total mult-adds (M): 11.40
==========================================================================================
Input size (MB): 1.91
Forward/backward pass size (MB): 2529.63
Params size (MB): 0.71
Estimated Total Size (MB): 2532.25
…
