…
        "feed_forward_dim": 128,
        "num_heads": 4,
        "num_layers": 3,
        "dropout": 0.1
    }
}
==========================================================================================
Layer (type:depth-idx)                   Output Shape              Param #
==========================================================================================
STAttention                              --                        --
├─ModuleList: 1-1                        --                        --
├─ModuleList: 1-2                        --                        --
├─Linear: 1-3                            [64, 12, 170, 12]         24
├─Embedding: 1-4                         [64, 12, 170, 12]         3,456
├─Embedding: 1-5                         [64, 12, 170, 12]         84
├─ModuleList: 1-1                        --                        --
│    └─SelfAttentionLayer: 2-1           [64, 12, 170, 96]         --
│    │    └─AttentionLayer: 3-1          [64, 170, 12, 96]         37,248
│    │    └─Dropout: 3-2                 [64, 170, 12, 96]         --
│    │    └─LayerNorm: 3-3               [64, 170, 12, 96]         192
│    │    └─Sequential: 3-4              [64, 170, 12, 96]         24,800
│    │    └─Dropout: 3-5                 [64, 170, 12, 96]         --
│    │    └─LayerNorm: 3-6               [64, 170, 12, 96]         192
│    └─SelfAttentionLayer: 2-2           [64, 12, 170, 96]         --
│    │    └─AttentionLayer: 3-7          [64, 170, 12, 96]         37,248
│    │    └─Dropout: 3-8                 [64, 170, 12, 96]         --
│    │    └─LayerNorm: 3-9               [64, 170, 12, 96]         192
│    │    └─Sequential: 3-10             [64, 170, 12, 96]         24,800
│    │    └─Dropout: 3-11                [64, 170, 12, 96]         --
│    │    └─LayerNorm: 3-12              [64, 170, 12, 96]         192
│    └─SelfAttentionLayer: 2-3           [64, 12, 170, 96]         --
│    │    └─AttentionLayer: 3-13         [64, 170, 12, 96]         37,248
│    │    └─Dropout: 3-14                [64, 170, 12, 96]         --
│    │    └─LayerNorm: 3-15              [64, 170, 12, 96]         192
│    │    └─Sequential: 3-16             [64, 170, 12, 96]         24,800
│    │    └─Dropout: 3-17                [64, 170, 12, 96]         --
│    │    └─LayerNorm: 3-18              [64, 170, 12, 96]         192
├─ModuleList: 1-2                        --                        --
│    └─SelfAttentionLayer: 2-4           [64, 12, 170, 96]         --
│    │    └─AttentionLayer: 3-19         [64, 12, 170, 96]         37,248
│    │    └─Dropout: 3-20                [64, 12, 170, 96]         --
│    │    └─LayerNorm: 3-21              [64, 12, 170, 96]         192
│    │    └─Sequential: 3-22             [64, 12, 170, 96]         24,800
│    │    └─Dropout: 3-23                [64, 12, 170, 96]         --
│    │    └─LayerNorm: 3-24              [64, 12, 170, 96]         192
│    └─SelfAttentionLayer: 2-5           [64, 12, 170, 96]         --
│    │    └─AttentionLayer: 3-25         [64, 12, 170, 96]         37,248
│    │    └─Dropout: 3-26                [64, 12, 170, 96]         --
│    │    └─LayerNorm: 3-27              [64, 12, 170, 96]         192
│    │    └─Sequential: 3-28             [64, 12, 170, 96]         24,800
│    │    └─Dropout: 3-29                [64, 12, 170, 96]         --
│    │    └─LayerNorm: 3-30              [64, 12, 170, 96]         192
│    └─SelfAttentionLayer: 2-6           [64, 12, 170, 96]         --
│    │    └─AttentionLayer: 3-31         [64, 12, 170, 96]         37,248
│    │    └─Dropout: 3-32                [64, 12, 170, 96]         --
│    │    └─LayerNorm: 3-33              [64, 12, 170, 96]         192
│    │    └─Sequential: 3-34             [64, 12, 170, 96]         24,800
│    │    └─Dropout: 3-35                [64, 12, 170, 96]         --
│    │    └─LayerNorm: 3-36              [64, 12, 170, 96]         192
├─Linear: 1-6                            [64, 96, 170, 12]         156
├─Linear: 1-7                            [64, 12, 170, 1]          97
==========================================================================================
Total params: 378,409
Trainable params: 378,409
Non-trainable params: 0
Total mult-adds (M): 24.22
==========================================================================================
Input size (MB): 1.57
Forward/backward pass size (MB): 5152.42
Params size (MB): 1.51
Estimated Total Size (MB): 5155.50
…
