…
        "feed_forward_dim": 256,
        "num_heads": 4,
        "num_layers": 3,
        "dropout": 0.1
    }
}
==========================================================================================
Layer (type:depth-idx)                   Output Shape              Param #
==========================================================================================
STAttention                              --                        --
├─ModuleList: 1-1                        --                        --
├─ModuleList: 1-2                        --                        --
├─Linear: 1-3                            [32, 12, 325, 12]         24
├─Embedding: 1-4                         [32, 12, 325, 12]         3,456
├─Embedding: 1-5                         [32, 12, 325, 12]         84
├─ModuleList: 1-1                        --                        --
│    └─SelfAttentionLayer: 2-1           [32, 12, 325, 96]         --
│    │    └─AttentionLayer: 3-1          [32, 325, 12, 96]         37,248
│    │    └─Dropout: 3-2                 [32, 325, 12, 96]         --
│    │    └─LayerNorm: 3-3               [32, 325, 12, 96]         192
│    │    └─Sequential: 3-4              [32, 325, 12, 96]         49,504
│    │    └─Dropout: 3-5                 [32, 325, 12, 96]         --
│    │    └─LayerNorm: 3-6               [32, 325, 12, 96]         192
│    └─SelfAttentionLayer: 2-2           [32, 12, 325, 96]         --
│    │    └─AttentionLayer: 3-7          [32, 325, 12, 96]         37,248
│    │    └─Dropout: 3-8                 [32, 325, 12, 96]         --
│    │    └─LayerNorm: 3-9               [32, 325, 12, 96]         192
│    │    └─Sequential: 3-10             [32, 325, 12, 96]         49,504
│    │    └─Dropout: 3-11                [32, 325, 12, 96]         --
│    │    └─LayerNorm: 3-12              [32, 325, 12, 96]         192
│    └─SelfAttentionLayer: 2-3           [32, 12, 325, 96]         --
│    │    └─AttentionLayer: 3-13         [32, 325, 12, 96]         37,248
│    │    └─Dropout: 3-14                [32, 325, 12, 96]         --
│    │    └─LayerNorm: 3-15              [32, 325, 12, 96]         192
│    │    └─Sequential: 3-16             [32, 325, 12, 96]         49,504
│    │    └─Dropout: 3-17                [32, 325, 12, 96]         --
│    │    └─LayerNorm: 3-18              [32, 325, 12, 96]         192
├─ModuleList: 1-2                        --                        --
│    └─SelfAttentionLayer: 2-4           [32, 12, 325, 96]         --
│    │    └─AttentionLayer: 3-19         [32, 12, 325, 96]         37,248
│    │    └─Dropout: 3-20                [32, 12, 325, 96]         --
│    │    └─LayerNorm: 3-21              [32, 12, 325, 96]         192
│    │    └─Sequential: 3-22             [32, 12, 325, 96]         49,504
│    │    └─Dropout: 3-23                [32, 12, 325, 96]         --
│    │    └─LayerNorm: 3-24              [32, 12, 325, 96]         192
│    └─SelfAttentionLayer: 2-5           [32, 12, 325, 96]         --
│    │    └─AttentionLayer: 3-25         [32, 12, 325, 96]         37,248
│    │    └─Dropout: 3-26                [32, 12, 325, 96]         --
│    │    └─LayerNorm: 3-27              [32, 12, 325, 96]         192
│    │    └─Sequential: 3-28             [32, 12, 325, 96]         49,504
│    │    └─Dropout: 3-29                [32, 12, 325, 96]         --
│    │    └─LayerNorm: 3-30              [32, 12, 325, 96]         192
│    └─SelfAttentionLayer: 2-6           [32, 12, 325, 96]         --
│    │    └─AttentionLayer: 3-31         [32, 12, 325, 96]         37,248
│    │    └─Dropout: 3-32                [32, 12, 325, 96]         --
│    │    └─LayerNorm: 3-33              [32, 12, 325, 96]         192
│    │    └─Sequential: 3-34             [32, 12, 325, 96]         49,504
│    │    └─Dropout: 3-35                [32, 12, 325, 96]         --
│    │    └─LayerNorm: 3-36              [32, 12, 325, 96]         192
├─Linear: 1-6                            [32, 96, 325, 12]         156
├─Linear: 1-7                            [32, 12, 325, 1]          97
==========================================================================================
Total params: 526,633
Trainable params: 526,633
Non-trainable params: 0
Total mult-adds (M): 16.85
==========================================================================================
Input size (MB): 1.50
Forward/backward pass size (MB): 5691.88
Params size (MB): 2.11
Estimated Total Size (MB): 5695.48
…
